pytorch/coco-592strats.pt (torch_old, 75401 bytes, 6 tensors)

ff_layers.0.weight f4 [128, 13]
-0.10821798 -0.63026845 0.41064224 -0.3286702 0.34135586 0.586861 0.3993666 0.35447544
0.102350816 -0.4280688 0.23254402 -0.18367764 0.17431296 -0.79029876 0.04195417 -0.5732238
-0.072938815 0.063554436 0.07170285 0.15068282 -0.30136487 -0.21270141 1.8423153 -0.08496395
0.37246263 0.44159517 -0.052541047 -0.12586385 0.07086876 0.168998 -0.0877306 0.09961054
-0.15151845 0.1763596 -0.27389914 -0.03129214 -0.07032861 0.1783768 0.17550075 -0.16136232
-0.50287974 0.1466387 -0.2669704 -0.034851003 -0.2242541 -0.12990429 0.043055847 0.2372084
0.029982233 0.22598556 0.0106889615 0.114067845 -0.23090579 -0.85722154 0.43918675 -0.38124
0.47423562 0.58282894 0.27298942 0.46806243 -0.024969958 -0.41268602 0.33647504 -0.060201276
-0.15917805 -0.1963861 -0.22567923 0.21694815 -0.2816148 0.27507147 0.44404483 0.3012986
0.21724382 0.29451934 -0.37565294 0.21085688 0.16965804 0.10146579 -0.21758518 0.25594968
-0.16471863 0.29574633 0.40196627 0.47353178 0.34640363 0.33260554 0.31389913 -0.18294069
-0.24050465 -0.08277663 0.100274906 0.117146924 -0.077066116 -0.30422297 0.164065 -0.42694435
-0.48110777 -0.81554097 -0.7646873 0.019521154 0.18216226 0.42696464 0.5166161 0.44306198
0.07073734 0.7395563 -0.121700086 0.60418594 -0.25312066 -0.24724887 -0.3270573 0.082672626
-0.26706892 0.18757248 -0.5076301 -0.33172473 -0.04851566 0.21748927 1.356788 -0.39931622
0.7174865 0.067948736 -0.2576669 -0.18750791 -0.104312465 0.034151148 0.37993187 -0.4342344
-0.25398308 0.03727695 0.1119964 -0.19666031 0.03109503 0.07454315 -0.2858922 -0.26203775
-0.21067214 -0.32136944 -0.062227946 0.27771318 -0.07171824 0.13580762 0.37650964 -0.31120092
-0.25000665 -0.07353835 0.014067533 0.50264156 0.54449296 0.4771455 0.55446756 0.14539407
-0.1774175 0.23697549 -0.05844623 -0.19447978 -0.13031802 0.16208887 -0.09544054 0.01821974
-0.16812189 -0.0605852 0.08921513 -0.22282892 -0.26977256 0.041686445 -0.05992861 0.016253918
0.111476004 -0.080791205 -0.081549704 0.14672917 0.20959449 -0.2537706 -0.15685564 0.2181668
-0.11262497 -0.26009807 0.10517314 -0.021999627 -0.1597288 0.22047189 -0.26791263 0.22284773
-0.116366714 -0.0035031736 0.13893446 0.09780821 -0.25557172 -0.14035843 -0.12030545 0.18760484
0.2773181 0.23890212 0.13820368 0.28857705 0.13792796 -0.09013902 -0.1371956 -0.74214274
-0.5588416 -0.41753778 -0.45261052 0.18563537 0.08387115 -0.2675477 0.07029442 -0.25567204
0.20890073 0.7063408 -0.2961756 0.26097676 0.04856089 -0.19929357 -0.3345005 -0.18837826
0.076308124 0.04031562 -0.42360216 -0.059287887 -0.25050223 0.46955228 -0.23934296 0.3532372
-0.26913115 -0.213916 -0.3576195 -0.54366744 -0.5365002 0.059388503 -0.077713646 0.4299233
0.04764255 0.12858762 -0.05497052 0.018696778 0.08693445 -0.08833545 -0.24198517 -0.033400115
-0.023064934 -0.33764192 -0.33369166 0.1726738 0.11814142 -0.17286485 0.029542185 -0.510046
0.3568627 -0.16407949 -0.03650349 -0.7104631 -0.37311324 -0.9093279 -0.8701299 0.024747644
00000000: 63a1 ddbd 4659 21bf b33f d23e 7647 a8be
00000010: 32c6 ae3e 863c 163f c779 cc3e ce7d b53e
00000020: 4e9d d13d d52b dbbe 0520 6e3e fe15 3cbe
00000030: 197f 323e 0551 4abf 23d8 2b3d ccbe 12bf
00000040: f260 95bd d428 823d f2d8 923d 994c 1a3e
00000050: 7f4c 9abe 66ce 59be fdd0 eb3f 9401 aebd
00000060: 6cb3 be3e c318 e23e 4835 57bd 74e2 00be
00000070: a423 913d d00d 2d3e 1aac b3bd 9c00 cc3d
00000080: a727 1bbe 9c97 343e 823c 8cbe 302c 00bd
00000090: 7208 90bd 68a8 363e 78b6 333e 2a3c 25be
000000a0: babc 00bf 7528 163e 58b0 88be edbf 0ebd
000000b0: dea2 65be a105 05be 545b 303d c2e6 723e
000000c0: 4d9d f53c c268 673e c120 2f3c 679c e93d
000000d0: 9172 6cbe df72 5bbf 16dd e03e e431 c3be
000000e0: 03cf f23e 4734 153f 45c5 8b3e e1a5 ef3e
000000f0: cc8d ccbc 954b d3be 7546 ac3e 9d95 76bd
00000100: 92ff 22be 7019 49be 7518 67be a827 5e3e
00000110: d12f 90be 2bd6 8c3e d859 e33e cf43 9a3e
00000120: 2a75 5e3e 3dcb 963e 9555 c0be deea 573e
00000130: d6ba 2d3e 4ccd cf3d a6ce 5ebe d60b 833e
00000140: 00ac 28be 106c 973e 86ce cd3e c272 f23e
00000150: d15b b13e 464b aa3e 63b7 a03e ce54 3bbe
00000160: da46 76be cb86 a9bd ee5c cd3d baea ef3d
00000170: d7d4 9dbd 1dc3 9bbe a800 283e 7398 dabe
00000180: c253 f6be 4bc7 50bf 8cc2 43bf d4ea 9f3c
00000190: be88 3a3e 1c9b da3e f440 043f 05d9 e23e
000001a0: bdde 903d 9053 3d3f e53d f9bd eeab 1a3f
000001b0: 0899 81be cf2e 7dbe 0e74 a7be 4450 a93d
000001c0: 42bd 88be 0013 403e 0cf4 01bf d3d7 a9be
000001d0: 5bb8 46bd 82b5 5e3e 3bab ad3f 2d73 ccbe
000001e0: 32ad 373f b528 8b3d eaec 83be 1302 40be
000001f0: c6a1 d5bd 13e2 0b3d 6e86 c23e f953 debe
00000200: 120a 82be b7af 183d 5e5e e53d 5261 49be
00000210: 01bb fe3c 14aa 983d 7660 92be d029 86be
00000220: 70ba 57be 898a a4be bbe2 7ebd 6c30 8e3e
00000230: 03e1 92bd 2711 0b3e dfc5 c03e ba55 9fbe
00000240: df00 80be 469b 96bd 837b 663c 1ead 003f
00000250: e463 0b3f 6a4c f43e 96f1 0d3f 2fe2 143e
00000260: efac 35be b4a9 723e 5065 6fbd b525 47be
00000270: 1672 05be a0fa 253e 5476 c3bd 9041 953c
00000280: 2528 2cbe 3028 78bd 6cb6 b63d 442d 64be
00000290: a11f 8abe 68bf 2a3d b477 75bd f026 853c
000002a0: 884d e43d dc75 a5bd 8803 a7bd 2c40 163e
000002b0: f09f 563e 38ee 81be c49e 20be 1e67 5f3e
000002c0: eca7 e6bd 932b 85be 0465 d73d 9038 b4bc
000002d0: f28f 23be 62c3 613e d82b 89be 3232 643e
000002e0: ac51 eebd 8095 65bb d644 0e3e ac4f c83d
000002f0: 4cda 82be 1fba 0fbe b462 f6bd 7c1b 403e
00000300: a3fc 8d3e c2a2 743e 4485 0d3e 5fc0 933e
00000310: fd3c 0d3e ce9a b8bd 017d 0cbe 11fd 3dbf
00000320: 3e10 0fbf 83c7 d5be 91bc e7be 3317 3e3e
00000330: a3c4 ab3d 03fc 88be 85f6 8f3d 72e7 82be
00000340: 13ea 553e c0d2 343f 54a4 97be bf9e 853e
00000350: c9e7 463d 9d13 4cbe a643 abbe 3be6 40be
00000360: 6f47 9c3d fe21 253d 62e2 d8be dbd7 72bd
00000370: d441 80be 2869 f03e 5216 75be 82db b43e
00000380: 8fcb 89be cc0c 5bbe e719 b7be ca2d 0bbf
00000390: 1458 09bf 5c41 733d 5528 9fbd e81e dc3e
000003a0: d624 433d 79ac 033e c528 61bd fc29 993c
000003b0: b00a b23d 37e9 b4bd f6ca 77be 8fce 08bd
000003c0: acf2 bcbc 67df acbe a2d9 aabe 67d1 303e
000003d0: 21f4 f13d 7c03 31be 7402 f23c 6092 02bf
000003e0: b5b6 b63e 7404 28be af84 15bd e9e0 35bf
000003f0: b308 bfbe b7c9 68bf d5c0 5ebf 92bb ca3c

ff_layers.0.bias f4 [128]
0.10243896 -0.00034298826 -0.1488849 0.38354486 0.18055944 -0.18262938 0.09985054 -0.21801853
-0.03176134 0.1686759 -0.34010985 -0.28641814 -0.19679758 -0.102436066 -0.1754207 -0.17968069
-0.31683043 0.0011346716 -0.08702624 -0.13863166 0.42233366 0.07574171 0.060985554 0.07627612
0.064358406 -0.09711492 0.046031624 -0.033145927 -0.25105044 0.1076322 -0.032549836 0.19726674
-0.072300754 -0.010415197 0.3530543 0.21225327 -0.2777612 -0.09585071 0.25146654 0.064528376
0.40972257 -0.16156912 -0.1463289 0.41206893 0.24718213 -0.0015505732 -0.3109047 0.09975943
-0.1321679 -0.09434625 -0.1321685 -0.24820668 0.38442236 0.3714021 -0.2759001 0.11183633
-0.30820596 -0.14752518 0.024209142 0.16354176 -0.090702884 0.07247423 0.016339079 -0.2615963
-0.06318852 0.47254875 0.16537707 -0.10106981 -0.066898294 0.31787843 -0.25812125 0.19294478
-0.083410114 0.015533954 -0.17571563 -0.1416851 0.18768218 -0.15356879 0.5843013 0.22664733
-0.1596518 0.2191112 -0.23157282 0.46958175 0.3166662 0.060284838 0.31111297 -0.33966392
0.23146822 0.39174336 -0.33772326 -0.011097903 0.12389973 0.020855999 -0.2456745 -0.16534072
0.14167237 -0.27386832 -0.024275282 -0.4670765 0.3021108 0.39703077 0.21469899 0.12102828
0.052571937 0.4240245 -0.6722388 -0.08404944 -0.088600665 -0.15858157 -0.11879295 -0.12723969
-0.06871589 0.3809055 -0.110594735 -0.08422875 -0.11774762 0.00092718005 0.21527392 -0.17901434
-0.058636434 0.074425094 -0.12028606 -0.09757483 0.018217292 0.110370144 -0.18121837 0.097654484
00000000: 84cb d13d 1bd3 b3b9 4975 18be fe5f c43e
00000010: 93e4 383e 3203 3bbe 717e cc3d 4040 5fbe
00000020: 2e18 02bd 60b9 2c3e e122 aebe 66a5 92be
00000030: 4e85 49be 00ca d1bd 7ca1 33be 37fe 37be
00000040: 9937 a2be 43b9 943a d03a b2bd 75f5 0dbe
00000050: 1e3c d83e 781e 9b3d fdcb 793d a836 9c3d
00000060: 57ce 833d 30e4 c6bd a88b 3c3d 06c4 07bd
00000070: af89 80be 456e dc3d fa52 05bd 4b00 4a3e
00000080: 6b12 94bd 81a4 2abc 89c3 b43e ec58 593e
00000090: b736 8ebe 614d c4bd 39c0 803e 7427 843d
000000a0: 28c7 d13e 6072 25be 3ed7 15be b3fa d23e
000000b0: 501d 7d3e 9a3c cbba e72e 9fbe ac4e cc3d
000000c0: 0657 07be 9b38 c1bd 2e57 07be e429 7ebe
000000d0: 02d3 c43e 6b28 be3e c742 8dbe 720a e53d
000000e0: 2ccd 9dbe d710 17be 4052 c63c 7e77 273e
000000f0: 6fc2 b9bd 5e6d 943d 88d9 853c f3ef 85be
00000100: fc68 81bd e9f1 f13e 9b58 293e b0fd cebd
00000110: f901 89bd f6c0 a23e 7828 84be 5193 453e
00000120: ecd2 aabd 2082 7e3c ccee 33be e615 11be
00000130: c22f 403e 2341 1dbe c594 153f 3d16 683e
00000140: c37b 23be b05e 603e 6d21 6dbe 056d f03e
00000150: 1222 a23e 3ced 763d 334a 9f3e 6ee8 adbe
00000160: 0106 6d3e 9692 c83e 10ea acbe fbd3 35bc
00000170: 24bf fd3d 33da aa3c 1992 7bbe 144f 29be
00000180: 9012 113e 7838 8cbe f5dc c6bc a724 efbe
00000190: 44ae 9a3e 9e47 cb3e 0dda 5b3e addd f73d
000001a0: ac55 573d bd19 d93e d817 2cbf 1d22 acbd
000001b0: 4474 b5bd 3563 22be b849 f3bd 1f4b 02be
000001c0: ebba 8cbd 0c06 c33e 7e7f e2bd 1f80 acbd
000001d0: aa25 f1bd 000e 733a c470 5c3e 894f 37be
000001e0: c22c 70bd 2f6c 983d 8a58 f6bd 50d5 c7bd
000001f0: 6e3c 953c be09 e23d 4f91 39be 13ff c73d

ff_layers.1.weight f4 [128, 128]
-0.07074573 -0.5877408 0.023378223 0.40703034 -0.04942011 0.03708232 0.22545244 -0.1786117
-0.13894436 -0.10535877 -0.090335146 -0.06593647 -0.080105856 -0.04466862 0.07146377 0.2395025
-0.07895482 0.071908824 0.03939943 0.0012162188 0.2691008 -0.05785397 0.05077858 -0.23695838
0.0859169 -1.4219522 -0.6782482 -1.5229934 -0.06857389 -3.2965224 -0.2488512 -0.089186504
-0.0952526 2.3317502 0.05697205 0.11840682 -0.9283131 0.32046536 0.07655763 -0.07087091
0.099702775 -0.04376852 0.17562573 -0.01716856 0.48426124 0.12957606 0.10056029 0.004793696
0.06318144 0.14564562 -0.023683146 0.08880319 -0.20426807 0.10412032 1.0263886 -0.5649601
0.86065537 0.31321928 -0.04789335 -0.023954697 -0.85504043 0.07601852 -0.046589945 0.50963295
-0.19495586 0.2835772 -0.40634876 0.06504043 -0.004027629 0.017847218 -0.044564024 0.28460893
-0.5969759 0.078379534 0.1340139 -0.08207423 0.19287351 0.20020595 0.38085827 0.095649816
-0.43205333 0.4298853 0.24832156 0.057787262 0.3543114 1.2040136 -0.03310565 -0.057607446
0.17169069 -0.076546066 -0.25600946 0.08532307 0.035311233 -0.63672847 0.10401665 -0.052929696
-0.19212657 -0.37818614 -0.06457066 -0.5380326 0.23617601 0.16086496 -0.098069906 0.078530036
-0.07643101 0.074992634 -0.33508816 -0.7619255 -1.3417294 0.06499795 -0.08726316 0.05117041
0.031260613 -0.21237138 -0.16222918 -0.2700532 -0.9586559 -0.019353814 -0.8860032 -0.30476007
0.15687604 -0.28305915 -0.1966749 -1.0734918 0.14882515 0.5892356 -0.42596698 -0.37804866
0.22156909 -0.3501805 -0.0207031 0.2817466 0.11786088 0.019726096 0.18013887 0.22821067
0.030027403 0.01109603 0.09358083 -0.01502879 -0.08728163 -0.06532972 -0.021882549 0.25615406
0.044483192 0.38745564 0.08202969 -0.0009572407 0.14552256 0.17740797 -0.13171141 0.0742679
-0.13273606 0.42052957 0.09088145 0.0024523868 -0.015506744 -0.08172644 -0.12687016 0.039219897
0.07100948 3.4196835 0.101720154 -0.091004655 -0.82283634 0.10906513 0.045629535 0.005500093
0.03921902 0.046868403 0.13948688 -0.16514562 -2.4214106 0.032185256 0.54642457 0.03017003
-0.0921443 0.08360242 0.05460038 0.08240021 0.09115441 -0.017075453 0.15490025 0.38516256
0.3002981 0.6260545 0.024761967 -0.08151476 0.4155511 0.03029966 0.046832368 -0.2016184
-0.29162413 0.09797861 -0.07916701 0.0929614 -0.013251745 0.107514344 -1.7868118 0.05501375
-1.0045791 0.04735779 0.32786557 0.20782103 0.114299536 0.12280755 0.2932149 0.043663044
-0.32666266 0.20450905 0.2639558 -0.2256057 0.08862329 2.4277925 0.0036675164 0.060232963
0.089308016 0.12639034 -0.0023570948 0.2449089 -0.05883725 0.36898753 0.151709 0.062069397
0.16084409 0.17863227 0.21922396 -0.2802783 0.20287012 0.010430795 0.019772442 0.40068495
0.08595242 0.06852621 0.362992 0.22531766 -0.40326443 -0.12688388 0.065948404 -0.059836745
0.08526937 0.032520458 0.36922383 0.33374813 -0.2578577 0.018871628 0.49109268 -0.008882646
-1.7878187 0.15796888 -0.55623585 0.09951752 -0.117165744 0.32343233 0.23038211 -3.1546862
00000000: 23e3 90bd 2e76 16bf b083 bf3c 4866 d03e
00000010: be6c 4abd a1e3 173d 01dd 663e fce5 36be
00000020: 6e47 0ebe 57c6 d7bd a201 b9bd b309 87bd
00000030: 8a0e a4bd 71f6 36bd 995b 923d 2540 753e
00000040: 11b3 a1bd ef44 933d 4c61 213d 8869 9f3a
00000050: 94c7 893e 49f8 6cbd 33fd 4f3d 38a5 72be
00000060: 33f5 af3d 8802 b6bf ada1 2dbf 73f1 c2bf
00000070: 7870 8cbd 39fa 52c0 d9d2 7ebe 6aa7 b6bd
00000080: cc13 c3bd 653b 1540 865b 693d 467f f23d
00000090: eda5 6dbf 0914 a43e 3fca 9c3d c524 91bd
000000a0: f830 cc3d 9f46 33bd 3bd7 333e 14a5 8cbc
000000b0: 17f1 f73e 96af 043e 8ef2 cd3d 7014 9d3b
000000c0: 4565 813d 2024 153e 2803 c2bc 72de b53d
000000d0: a62b 51be 093d d53d b460 833f 3aa1 10bf
000000e0: e953 5c3f 475e a03e d12b 44bd a43c c4bc
000000f0: eee3 5abf 99af 9b3d 19d5 3ebd 4e77 023f
00000100: 82a2 47be 0831 913e f20c d0be eb33 853d
00000110: 33fa 83bb 5434 923c c488 36bd 43b8 913e
00000120: 6ad3 18bf 7385 a03d f13a 093e 8916 a8bd
00000130: a280 453e ca02 4d3e dbff c23e 0de4 c33d
00000140: 1836 ddbe ed19 dc3e 0248 7e3e 56b2 6c3d
00000150: 4e68 b53e 1e1d 9a3f ca99 07bd c9f5 6bbd
00000160: afcf 2f3e 2fc4 9cbd ac13 83be ddbd ae3d
00000170: 83a2 103d a300 23bf ae06 d53d cfcc 58bd
00000180: d4bc 44be 9da1 c1be 9f3d 84bd 81bc 09bf
00000190: 20d8 713e c9b9 243e e0d8 c8bd 5bd4 a03d
000001a0: dd87 9cbd bd95 993d ad90 abbe 8d0d 43bf
000001b0: cabd abbf a51d 853d 07b7 b2bd 1098 513d
000001c0: 210b 003d e277 59be 681f 26be 6a44 8abe
000001d0: 796a 75bf e48b 9ebc 1bd1 62bf 8309 9cbe
000001e0: 1da4 203e 21ed 90be 2565 49be 2e68 89bf
000001f0: 9f65 183e 25d8 163f 5818 dabe 988f c1be
00000200: 02e3 623e dc4a b3be 8c99 a9bc 1741 903e
00000210: 0c61 f13d 9f98 a13c 5376 383e 0fb0 693e
00000220: 07fc f53c 1fcc 353c 4ea7 bf3d 503b 76bc
00000230: b6c0 b2bd 97cb 85bd 0843 b3bc a026 833e
00000240: 0234 363d 9660 c63e 2fff a73d 56ef 7aba
00000250: de03 153e 6faa 353e 5bdf 06be c519 983d
00000260: f6eb 07be a74f d73e 0e20 ba3d 39b8 203b
00000270: 0010 7ebc 3160 a7bd 40ea 01be 0ba5 203d
00000280: 6b6d 913d 18dc 5a40 a852 d03d a660 babd
00000290: 67a5 52bf 8a5d df3d 09e6 3a3d 203a b43b
000002a0: 20a4 203d 15f9 3f3d a6d5 0e3e ef1b 29be
000002b0: 64f8 1ac0 b0d4 033d 7be2 0b3f 2427 f73c
000002c0: 27b6 bcbd bf37 ab3d a6a4 5f3d 71c1 a83d
000002d0: 2aaf ba3d d2e1 8bbc 2c9e 1e3e 0734 c53e
000002e0: acc0 993e 1c45 203f 9cd9 ca3c 36f1 a6bd
000002f0: 1dc3 d43e fe36 f83c 4cd3 3f3d 0e75 4ebe
00000300: c24f 95be 02a9 c83d 5022 a2bd 8c62 be3d
00000310: d91d 59bc 7b30 dc3d 40b6 e4bf 1956 613d
00000320: 0c96 80bf 3efa 413d ffdd a73e 09cf 543e
00000330: e015 ea3d 8682 fb3d 4320 963e 05d8 323d
00000340: 5440 a7be d26a 513e 3725 873e 2e05 67be
00000350: 2180 b53d f460 1b40 b75a 703b d7b6 763d
00000360: 1fe7 b63d 786c 013e 7d79 1abb 66c9 7a3e
00000370: 54ff 70bd efeb bc3e 9b59 1b3e 7b3c 7e3d
00000380: 50b4 243e 61eb 363e 3f7c 603e a380 8fbe
00000390: 2fbd 4f3e ede5 2a3c d1f9 a13c 9426 cd3e
000003a0: d307 b03d 7857 8c3d 16da b93e acb9 663e
000003b0: ad78 cebe d9ed 01be f50f 873d 6017 75bd
000003c0: b5a1 ae3d 2c34 053d e80a bd3e 09e1 aa3e
000003d0: ed05 84be ac98 9a3c 8070 fb3e 8588 11bc
000003e0: 3ed7 e4bf 98c2 213e 7965 0ebf d7cf cb3d
000003f0: 98f4 efbd ec98 a53e 4ae9 6b3e 61e6 49c0

ff_layers.1.bias f4 [128]
0.33304483 0.23212099 0.19146174 0.25943622 0.26987177 -0.024792692 -0.1334571 -0.074029565
-0.079996295 0.27385 0.40629724 0.2130137 0.009076978 0.4581959 -0.11452721 0.053317823
-0.032980334 -0.015761107 -0.11029994 -0.09923031 -0.07623106 -0.047064118 -0.028741758 -0.02177599
0.19852653 -0.11362513 0.31694725 0.08356258 0.18897802 -0.023713067 0.20890555 0.18089688
0.3200229 0.15207794 -0.0041349945 0.08998716 0.18357733 0.40501416 -0.04600551 0.3549312
-0.00074665865 0.079777196 0.1515792 0.67871237 -0.04594215 0.39062595 -0.057817478 0.22055157
-0.059202667 0.1191412 -0.12662211 -0.058591504 0.43482712 -0.058148764 0.13047023 0.15940683
0.2469806 0.2809675 -0.11112283 0.1570887 0.3074219 -0.042759057 0.29167795 0.3511953
-0.09937477 0.07514343 -0.13491277 -0.06557049 0.009102891 -0.007584709 -0.13113272 -0.027303413
0.13019893 0.28545374 -0.3289181 -0.12955917 0.18335967 -0.08520811 -0.14072014 -0.08997936
0.35138065 0.250002 -0.115481324 0.1693923 0.27461693 0.11317044 0.29305932 0.104959324
0.25532836 0.3598434 0.43482685 -0.03992359 0.7642893 0.22019869 -0.0643952 0.119025595
-0.024294475 -0.0901944 0.24177752 0.31478736 0.287222 -0.07212331 0.45920384 0.26986217
-0.11947105 -0.16635439 0.24934103 0.46446264 0.18846108 0.2797138 -0.09802851 -0.023282006
0.12795773 0.16654558 -0.042520065 0.23396721 0.0025453642 0.24670969 0.48820895 0.41529536
0.22459006 0.18720165 0.0037563927 -0.08032369 0.0015735378 -0.01666669 0.36619073 1.7240101e-05
00000000: da84 aa3e 20b1 6d3e 8c0e 443e d3d4 843e
00000010: a22c 8a3e 0b1a cbbc faa8 08be d09c 97bd
00000020: 19d5 a3bd 1136 8c3e 3106 d03e 4320 5a3e
00000030: 9bb7 143c a798 ea3e 3e8d eabd ca63 5a3d
00000040: 6316 07bd 701d 81bc efe4 e1bd 4339 cbbd
00000050: 081f 9cbd 4ec6 40bd d673 ebbc 9063 b2bc
00000060: 8a4a 4b3e 4bb4 e8bd e946 a23e dc22 ab3d
00000070: 7483 413e e841 c2bc 56eb 553e 083d 393e
00000080: 0bda a33e 52ba 1b3e d97e 87bb 304b b83d
00000090: b2fb 3b3e 045e cf3e 4670 3cbd 8bb9 b53e
000000a0: 6abb 43ba 3a62 a33d 9437 1b3e 18c0 2d3f
000000b0: d62d 3cbd 2000 c83e 05d2 6cbd 45d8 613e
000000c0: 7f7e 72bd 4d00 f43d 3aa9 01be a5fd 6fbd
000000d0: a9a1 de3e 662d 6ebd fd99 053e 8b3b 233e
000000e0: 7be8 7c3e f9da 8f3e 5e94 e3bd dcdb 203e
000000f0: 6766 9d3e 1f24 2fbd d056 953e dfcf b33e
00000100: 0085 cbbd cce4 993d 9326 0abe d249 86bd
00000110: 4b24 153c 2789 f8bb a847 06be 68ab dfbc
00000120: de52 053e fe26 923e f467 a8be 29ab 04be
00000130: a3c2 3b3e 9781 aebd f118 10be 1947 b8bd
00000140: 2ae8 b33e 4300 803e 7981 ecbd 2d75 2d3e
00000150: 979a 8c3e e7c5 e73d df0b 963e eaf4 d63d
00000160: 66ba 823e 653d b83e a0a1 de3e eb86 23bd
00000170: 77a8 433f c47b 613e a1e1 83bd b1c3 f33d
00000180: 3505 c7bc d7b7 b8bd 8794 773e cf2b a13e
00000190: c30e 933e 63b5 93bd c41c eb3e 602b 8a3e
000001a0: 3dad f4bd ce58 2abe 4153 7f3e 0cce ed3e
000001b0: f1fb 403e a636 8f3e 2cc3 c8bd e8b9 bebc
000001c0: 5a07 033e ed8a 2a3e 8529 2ebd 1a95 6f3e
000001d0: 20d0 263b 77a1 7c3e 86f6 f93e 98a1 d43e
000001e0: f0fa 653e cab1 3f3e d02d 763b bf80 a4bd
000001f0: 2b3f ce3a 9588 88bc 5a7d bb3e d69e 9037

ff_layers.2.weight f4 [2, 128]
0.18106508 -0.2137416 -0.02700437 0.077740476 0.32638314 -0.05914036 9.2388516e-05 -0.15025313
0.021431763 3.1064634 -0.29525685 -4.1916647 0.026043423 -0.9095875 0.9670693 -0.9135554
-0.10647802 -0.2231711 0.022764552 -0.010432326 -0.052843172 -0.08932993 -0.022307603 -0.004765103
-1.1730402 0.046499267 -0.39358875 -0.1357797 0.32981515 0.08029225 -0.30554482 3.2970178
0.040112328 -4.7624264 1.0957263 0.068382904 0.3325912 0.24516666 -0.020764107 -2.8718948
-0.026131205 -0.35402215 0.08884304 0.6948946 0.032544624 -0.4895806 -0.023573257 -0.11602076
-0.018033206 -0.5746295 0.003021947 0.036696017 -0.31918138 -0.018912418 3.2105317 0.07010612
-0.010800904 -2.9157317 -0.03382641 -0.035246763 -3.3555253 -0.04683741 0.41125777 -0.24215442
0.000876929 3.8302982 -0.09120592 -0.004660525 0.017495595 -0.023894938 0.079538636 -0.043956034
0.05423534 0.009606528 0.21068627 0.010006721 3.2830417 0.05585243 0.016454693 0.037766006
-0.212009 -3.894066 0.06968967 2.0094528 2.4278116 2.8660204 0.1906353 -0.19341609
0.25109583 0.40756828 0.21768637 0.0018677664 -0.7562317 -0.0182879 -0.03348584 3.5125718
-0.12320225 -0.014377403 -0.10458939 0.16390696 0.027245088 -0.012277069 -0.5395719 -0.25636363
0.01046783 -0.028633477 0.07131285 -0.36285 0.19832142 -2.778468 -0.009873345 -0.008113808
0.039054945 0.26229322 -0.11700556 0.17260832 0.015769348 2.240069 -0.40814543 -0.49668244
-0.21735387 0.06245137 -0.08568374 -0.09686088 -0.025280464 -0.06811534 -0.31863806 -0.0013324962
0.66890496 -0.6119278 -0.4499363 -0.4912621 0.46311668 -0.04870859 0.035716206 -0.0849419
0.082175076 2.8790736 -0.42105937 -2.0835764 -0.017502664 -0.884209 0.86226076 0.06711287
0.027494343 0.02874201 -0.02544499 -0.02400916 -0.009753265 -0.041918762 -0.0028456831 -0.0020568403
-0.16651455 -0.0010867977 -3.23121 0.548036 0.38991144 0.077627294 0.31726488 2.0394247
-0.74351764 -2.3033946 -0.86328596 0.30502868 0.42818832 0.5111953 0.0016936706 -2.4309003
0.11620537 -0.24319151 0.5115361 1.1003908 0.030097537 -0.5951679 -0.07793636 0.5781605
0.025838356 0.4657241 -0.002892954 -0.084175125 -0.40188348 0.0010217663 1.3705581 0.33561036
-0.40240175 -2.6653697 -0.0027105892 0.48345035 -2.5456586 -0.043928146 0.40498146 -0.36067566
-0.015081172 2.2822359 -0.022427484 -0.13353682 -0.03867726 -0.032041594 -0.0037986909 -0.032502484
0.6930887 -0.61292285 0.35793915 -0.05262342 1.7156734 0.040479366 -0.07630553 0.032461908
-0.30863133 -2.4274824 -0.004258885 2.5636172 2.395148 2.6406267 0.5827992 0.41354853
0.49177858 -0.8547683 0.54858613 -0.075428255 -0.6562209 -0.3283792 -0.06252249 1.4979761
-0.0063456194 0.14534573 -0.6808605 0.5523622 -0.76428676 -0.064726375 -0.6433462 -0.5289535
0.025286995 -0.07449898 -0.6318435 -0.5345987 2.086871 -2.6221364 0.07395002 -0.015339253
-1.7121022 0.7020447 -0.35163146 -0.9205291 0.013465308 2.7017064 -0.9961901 -0.3102636
-0.44555247 0.3172088 -0.0103912335 -0.033583384 -0.030836623 -0.015493091 -0.570302 -0.0504376
00000000: 2069 393e 14df 5abe 4538 ddbc 6636 9f3d
00000010: b11b a73e 2a3d 72bd b5c0 c138 f5db 19be
00000020: aa91 af3c 4cd0 4640 e82b 97be 1e22 86c0
00000030: 0459 d53c bada 68bf db91 773f c4de 69bf
00000040: 2611 dabd f786 64be ba7c ba3c 59ec 2abc
00000050: 1572 58bd 9cf2 b6bd 6fbe b6bc 9524 9cbb
00000060: 2e26 96bf 0476 3e3d 7784 c9be d509 0bbe
00000070: 88dd a83e 4370 a43d 5f70 9cbe 5702 5340
00000080: d34c 243d cc65 98c0 c240 8c3f 560c 8c3d
00000090: 6549 aa3e f80c 7b3e 7d19 aabc 20cd 37c0
000000a0: 1c11 d6bc 6442 b5be 57f3 b53d 9de4 313f
000000b0: 834d 053d 4faa fabe b41c c1bc 4b9c edbd
000000c0: 60ba 93bc eb1a 13bf dc0b 463b 904e 163d
000000d0: be6b a3be 37ee 9abc 5a79 4d40 cc93 8f3d
000000e0: 46f6 30bc 599b 3ac0 908d 0abd e95e 10bd
000000f0: edc0 56c0 96d8 3fbd 6190 d23e 54f7 77be
00000100: b6e1 653a 9b23 7540 2bca babd 51b7 98bb
00000110: ec52 8f3c 51bf c3bc 27e5 a23d 3e0b 34bd
00000120: e025 5e3d b364 1d3c 24be 573e 3bf3 233c
00000130: 5b1d 5240 85c5 643d fecb 863c 87b0 1a3d
00000140: e318 59be 6138 79c0 75b9 8e3d e09a 0040
00000150: 4461 1b40 e16c 3740 e635 433e de0e 46be
00000160: a28f 803e caac d03e 2de9 5e3e d7cf f43a
00000170: 6798 41bf 82d0 95bc 7328 09bd facd 6040
00000180: 7651 fcbd 338f 6bbc f632 d6bd 3ad7 273e
00000190: 1731 df3c c225 49bc 6221 0abf 1842 83be
000001a0: 4381 2b3c c190 eabc 790c 923d 7ac7 b9be
000001b0: c514 4b3e 6bd2 31c0 cfc3 21bc c7ef 04bc
000001c0: 14f8 1f3d 4c4b 863e 9ca0 efbd 3cc0 303e
000001d0: b82e 813c 4a5d 0f40 70f8 d0be 294d febe
000001e0: 0392 5ebe 02cd 7f3d f57a afbd ff5e c6bd
000001f0: fa18 cfbc 0e80 8bbd 8724 a3be 27a7 aeba
00000200: 5b3d 2b3f 4da7 1cbf 0d5e e6be b586 fbbe
00000210: a11d ed3e a982 47bd 284b 123d 05f6 adbd
00000220: 684b a83d be42 3840 1895 d7be 5159 05c0
00000230: bf61 8fbc 855b 62bf 1fbd 5c3f 7972 893d
00000240: d13b e13c 5d74 eb3c 0372 d0bc dcae c4bc
00000250: 29cc 1fbc 02b3 2bbd a47e 3abb 0ecc 06bb
00000260: ca82 2abe e172 8eba 25cc 4ec0 164c 0c3f
00000270: 79a2 c73e 0ffb 9e3d 8b70 a23e ef85 0240
00000280: 2c57 3ebf d16a 13c0 4f00 5dbf b82c 9c3e
00000290: 803b db3e b2dd 023f 28fe dd3a df93 1bc0
000002a0: 15fd ed3d 3207 79be 08f4 023f 9bd9 8c3f
000002b0: 1c8f f63c ec5c 18bf 199d 9fbd 5402 143f
000002c0: f6aa d33c 6473 ee3e b797 3dbb 0264 acbd
000002d0: acc3 cdbe caec 853a 736e af3f 1fd5 ab3e
000002e0: 9a07 cebe 6b95 2ac0 24a4 31bb ce86 f73e
000002f0: 12ec 22c0 00ee 33bd bb59 cf3e 7baa b8be
00000300: 0517 77bc 2710 1240 d8b9 b7bc e0bd 08be
00000310: 0c6c 1ebd 0c3e 03bd 75f3 78bb 5321 05bd
00000320: 436e 313f 83e8 1cbf cd43 b73e a88b 57bd
00000330: 309b db3f b1cd 253d 1346 9cbd c7f6 043d
00000340: ed04 9ebe df5b 1bc0 1e8e 8bbb 4e12 2440
00000350: 1b4a 1940 0700 2940 5432 153f a2bc d33e
00000360: 67ca fb3e 18d2 5abf 2470 0c3f 217a 9abd
00000370: 18fe 27bf 5221 a8be cb0b 80bd aebd bf3f
00000380: eaee cfbb 83d5 143e e04c 2ebf 9c67 0d3f
00000390: 4ca8 43bf 438f 84bd 56b2 24bf 7f69 07bf
000003a0: ac26 cf3c ec92 98bd 7fc0 21bf 76db 08bf
000003b0: 4b8f 0540 15d1 27c0 1c73 973d 7d51 7bbc
000003c0: 2a26 dbbf 34b9 333f 0a09 b4be cca7 6bbf
000003d0: 989d 5c3c c2e8 2c40 5006 7fbf dfda 9ebe
000003e0: 741f e4be 3169 a23e fe3f 2abc bb8e 09bd
000003f0: 169d fcbc bcd6 7dbc 50ff 11bf a897 4ebd

ff_layers.2.bias f4 [2]
-0.019928217 0.046266194
00000000: 8040 a3bc 9f81 3d3d
