pytorch/coco-50strats.pt (torch_old, 75405 bytes, 6 tensors)

ff_layers.0.weight f4 [128, 13]
-0.4162853 0.54486215 0.038244013 -0.0020449446 -0.6252137 -0.8066989 -0.70939386 -0.3442311
0.049420036 2.0682902 -0.13693367 0.48781914 0.12599412 0.43376142 0.91928303 -0.26747987
0.3815327 -0.56569314 -0.5246601 -0.41488537 -0.6124697 -0.028784832 0.36609846 -0.33615047
-0.31221965 -0.05315083 0.058412336 0.5467057 0.13930756 0.2838733 -0.81133306 -0.8964295
-0.76622903 -0.42215016 -0.2533488 0.09678575 -0.2468174 0.01432472 -0.2029604 0.08366054
-0.15108496 0.6085663 -0.2519617 0.19926573 0.2191528 0.58815116 0.47862428 -0.12775062
-0.324176 -0.2593816 -0.20880349 -0.006029906 -0.4398078 -0.18697856 0.15795648 -0.38296652
-0.20287438 0.23736468 0.17668931 0.20545124 0.2424121 -0.21660596 0.379603 -0.1565556
0.26680556 -0.07797732 -0.24476586 0.04528167 -0.10533491 0.07503116 0.05145371 0.30115494
-0.007001682 0.037122793 -0.0152300885 0.12030739 0.011506456 -0.13466547 0.105980076 -1.0274228
0.20661962 -0.35978413 0.2532134 0.0023212568 0.28256822 0.27044356 -0.1578999 -0.31580752
1.158211 -0.24138561 -0.019215977 -0.12952259 0.03448707 -0.08322419 -0.006371081 0.010994613
0.22277042 -0.11116853 -0.06730348 -0.14428714 -0.13143313 0.08595547 0.0206244 0.1995871
-0.08102905 -0.49310297 0.23740552 -0.13955894 0.31549588 0.42695642 -0.028732102 0.16005376
0.22199465 0.03884706 0.16256654 -0.1958305 -0.065099254 -0.11295139 0.04252706 -0.1130775
-0.08692826 -0.13792191 -0.13735388 -0.04667593 0.03431417 -0.3487234 -0.05195021 0.17425537
-0.13768414 0.07866884 -0.08768865 -1.1470197 0.51503944 -0.7144019 0.21920839 -0.02068403
-0.18030259 -0.23925251 -0.022406435 -0.22448255 1.1134495 -0.080419146 0.13484797 0.118434
0.1827986 -0.20930305 0.46510744 0.05596722 -0.1204091 -0.23804523 -0.22576612 -0.28767407
0.022830278 -0.26728514 -0.26912853 -0.23098555 0.39123896 -0.37647456 0.46069336 -0.78675973
-0.73836553 -0.79623693 -1.1428982 -0.9129224 -0.1315936 -0.36732638 1.3482252 0.16106164
0.20416996 -0.09263574 0.074032776 -0.13416436 0.008162444 -0.045769107 0.009890958 -0.082399495
-0.03575416 -0.39025077 -0.015351013 0.34045923 0.02171323 0.15620741 0.04465836 0.6680918
-0.30327225 0.36511722 -0.18123066 -0.05155719 -0.14200273 -0.052168667 -0.041054323 0.036926184
-0.3783117 0.14039183 -0.21766283 0.11576692 0.4240159 -0.07971325 0.18994734 0.027581843
-0.4300844 -0.08604951 -0.19691433 0.11635594 -0.15633512 -0.18955533 0.12770502 -0.06920015
0.8764035 0.3222126 0.530224 -0.26588044 -1.1148119 -1.1593908 -0.8592279 -0.82025516
-0.4632821 -0.12555932 0.7449094 0.15877399 0.017751835 -0.10321901 -0.4847514 0.30370513
-0.34577695 -0.12657624 -0.25669268 -0.19634375 -0.4420716 0.14652969 -0.4000234 0.39842862
0.06418025 0.21331498 -0.13293667 0.044868413 0.09184975 0.06610069 0.04354443 -0.07876368
0.11894285 -0.057702318 -0.008129929 0.2111056 0.21992359 0.21729544 0.23295167 0.41160083
0.44106632 0.01463209 0.15326908 -0.15847556 -0.24172601 0.21300294 -0.1787537 0.25636122
00000000: 5923 d5be 167c 0b3f c1a5 1c3d 7a04 06bb
00000010: 010e 20bf d283 4ebf d69a 35bf 0f3f b0be
00000020: aa6c 4a3d de5e 0440 5738 0cbe 6ec3 f93e
00000030: 9a04 013e fa15 de3e 2256 6b3f 1ff3 88be
00000040: 4158 c33e 44d1 10bf 2050 06bf db6b d4be
00000050: d0ca 1cbf 2bce ebbc 4271 bb3e ea1b acbe
00000060: 41db 9fbe afb4 59bd c641 6f3d e8f4 0b3f
00000070: a4a6 0e3e d757 913e 86b3 4fbf 677c 65bf
00000080: 9627 44bf 1124 d8be efb6 81be 9b37 c63d
00000090: b3bd 7cbe 3bb2 6a3c dad4 4fbe 3856 ab3d
000000a0: 04b6 1abe 00cb 1b3f 2001 81be 510c 4c3e
000000b0: 9769 603e 1391 163f 3e0e f53e 0fd1 02be
000000c0: 66fa a5be aacd 84be 95d0 55be 8596 c5bb
000000d0: 7d2e e1be 4f77 3fbe 58bf 213e 3014 c4be
000000e0: 4dbe 4fbe ba0f 733e 0bee 343e cf61 523e
000000f0: e13a 783e f4cd 5dbe 535b c23e 1c50 20be
00000100: bd9a 883e 93b2 9fbd e7a3 7abe 4679 393d
00000110: d4b9 d7bd f0a9 993d 20c1 523d fb30 9a3e
00000120: 5e6e e5bb 120e 183d 9f87 79bc b963 f63d
00000130: 9385 3c3c bfe5 09be 150c d93d 9782 83bf
00000140: 1894 533e a035 b8be 30a5 813e 3a20 183b
00000150: c8ac 903e 9477 8a3e 83b0 21be 86b1 a1be
00000160: 4240 943f ca2d 77be d36a 9dbc 92a1 04be
00000170: 5042 0d3d 7271 aabd 80c4 d0bb c022 343c
00000180: ee1d 643e 54ac e3bd 68d6 89bd 02c0 13be
00000190: 6896 06be 6c09 b03d 80f4 a83c 9060 4c3e
000001a0: 8ff2 a5bd fe77 fcbe 6f1a 733e 8ae8 0ebe
000001b0: ad88 a13e 089a da3e 965f ebbc 22e5 233e
000001c0: 9152 633e 181e 1f3d d877 263e ca87 48be
000001d0: c252 85bd 0f53 e7bd db30 2e3d 2d95 e7bd
000001e0: 7207 b2bd 673b 0dbe 7fa6 0cbe 432f 3fbd
000001f0: 048d 0c3d e08b b2be bec9 54bd 0070 323e
00000200: 12fd 0cbe 211d a13d 1b96 b3bd 8bd1 92bf
00000210: a0d9 033f 0be3 36bf 2a78 603e 8e71 a9bc
00000220: 3ea1 38be 9cfe 74be b38d b7bc c1de 65be
00000230: 8385 8e3f cbb2 a4bd 9615 0a3e 868d f23d
00000240: 8e2f 3b3e 8a53 56be 9022 ee3e e23d 653d
00000250: 0c99 f6bd 21c2 73be 3c2f 67be 044a 93be
00000260: 9006 bb3c 99d9 88be 37cb 89be 7a87 6cbe
00000270: 7950 c83e 46c1 c0be 00e0 eb3e 1669 49bf
00000280: 8605 3dbf 2fd6 4bbf 7d4a 92bf 48b5 69bf
00000290: 79c0 06be 3412 bcbe a592 ac3f 58ed 243e
000002a0: ee11 513e cfb7 bdbd 7f9e 973d 6262 09be
000002b0: c6bb 053c 6378 3bbd af0d 223c 11c1 a8bd
000002c0: f472 12bd f3ce c7be d182 7bbc ac50 ae3e
000002d0: f2df b13c d6f4 1f3e afeb 363d 1008 2b3f
000002e0: 8046 9bbe a5f0 ba3e 8894 39be a22d 53bd
000002f0: 2a69 11be d0ae 55bd 9428 28bd e93f 173d
00000300: 12b2 c1be e0c2 0f3e 01e3 5ebe 3517 ed3d
00000310: 9d18 d93e b340 a3bd 8e81 423e 51f3 e13c
00000320: 0634 dcbe ba3a b0bd e9a3 49be 064c ee3d
00000330: 5016 20be cb1a 42be 1bc5 023e cfb8 8dbd
00000340: fb5b 603f 0df9 a43e c3bc 073f 7b21 88be
00000350: 28b2 8ebf eb66 94bf 5cf6 5bbf 3efc 51bf
00000360: 5033 edbe 9f92 00be 62b2 3e3f a695 223e
00000370: 4c6c 913c 7d64 d3bd 5631 f8be 3d7f 9b3e
00000380: ad09 b1be 349d 01be 396d 83be 560e 49be
00000390: 3557 e2be e10b 163e decf ccbe d6fe cb3e
000003a0: ef70 833d 3e6f 5a3e 8d20 08be f1c7 373d
000003b0: b91b bc3d cc5f 873d a55b 323d da4e a1bd
000003c0: 4f98 f33d 4459 6cbd 6533 05bc 112c 583e
000003d0: a633 613e b282 5e3e e28a 6e3e 58bd d23e
000003e0: 72d3 e13e 6fbb 6f3c 92f2 1c3e 6b47 22be
000003f0: 0687 77be 711d 5a3e 360b 37be c741 833e

ff_layers.0.bias f4 [128]
-0.23947875 0.012385866 -0.23627642 0.22549675 -0.084200874 0.37843013 0.09048844 -0.12852922
-0.1594581 -0.11432291 -0.10580351 -0.23852733 0.033952374 0.14940938 0.2154526 0.11700122
-0.27077264 0.1798908 -0.21595867 -0.010329265 -0.32666537 0.00915893 -0.18074968 0.07371308
-0.08565774 -0.20854615 -0.18005611 0.015449791 -0.3672286 -0.16643347 -0.08579681 0.07884352
-0.12983444 -0.24451995 -0.047911316 -0.0228113 0.0065314244 0.20466039 -0.01785282 0.06282562
-0.34782276 0.27911562 0.36791256 0.12190843 -0.10358344 0.04591954 -0.052580256 -0.30335352
0.08718736 0.1380519 -0.22117378 -0.16376148 0.27251637 -0.023804383 0.2975644 -0.0486285
-0.031044729 0.03832413 -0.050373055 -0.06971552 0.13015148 -0.09671788 0.28854147 -0.20018023
-0.005539945 -0.123480186 0.23863511 -0.18365113 -0.032966293 0.09305528 0.2298606 -0.039527677
-0.19334103 0.27068797 -0.09947302 0.17852148 -0.15973583 0.090976015 0.06790623 0.15741968
0.23697177 0.31829682 -0.05021379 0.037234385 0.26988637 -0.08998882 -0.12369579 0.0015054215
-0.22667931 0.19995575 0.16704202 -0.06774145 -0.33413216 0.22880043 -0.098370634 -0.11898485
-0.0011438531 -0.076531045 0.22183877 -0.02526883 -0.053137146 -0.21377479 -0.098883286 0.20214751
0.08783048 -0.060727265 -0.33974925 -0.121553406 -0.30930853 0.14565113 0.13433625 0.29651684
-0.008203858 0.39705592 -0.010783675 -0.22290727 -0.13906942 -0.07252989 -0.36118594 0.065355636
0.15863155 0.22531837 -0.08886471 0.22894014 0.19891211 0.19203053 0.12617947 0.36960348
00000000: eb39 75be 16ee 4a3c 72f2 71be 9fe8 663e
00000010: 8271 acbd 98c1 c13e 0152 b93d 2a9d 03be
00000020: fc48 23be 2122 eabd 83af d8bd 8240 74be
00000030: a511 0b3d c6fe 183e 9b9f 5c3e 569e ef3d
00000040: b6a2 8abe 4b35 383e 4524 5dbe 143c 29bc
00000050: af40 a7be 560f 163c 7216 39be e2f6 963d
00000060: 536d afbd 1f8d 55be a160 38be 1f21 7d3c
00000070: 6305 bcbe 896d 2abe 3db6 afbd b678 a13d
00000080: 52f3 04be 7063 7abe a83e 44bd c3de babc
00000090: 8f05 d63b 7e92 513e 1440 92bc b8aa 803d
000000a0: d315 b2be 3ee8 8e3e 095f bc3e 20ab f93d
000000b0: 8e23 d4bd 2116 3c3d 655e 57bd 2751 9bbe
000000c0: 498f b23d 7a5d 0d3e 617b 62be 17b1 27be
000000d0: 4487 8b3e 6901 c3bc 5c5a 983e ae2e 47bd
000000e0: 8451 febc c3f9 1c3d fa53 4ebd 03c7 8ebd
000000f0: 6e46 053e 0614 c6bd b5bb 933e 0cfc 4cbe
00000100: 6d88 b5bb 2ee3 fcbd c35c 743e 0b0f 3cbe
00000110: aa07 07bd c493 be3d 9460 6b3e c6e7 21bd
00000120: 31fb 45be 9d97 8a3e 83b8 cbbd 56ce 363e
00000130: ca91 23be a251 ba3d 6c12 8b3d a032 213e
00000140: baa8 723e cdf7 a23e faac 4dbd 1583 183d
00000150: 8c2e 8a3e 0f4c b8bd 3854 fdbd 9051 c53a
00000160: 9f1e 68be 33c1 4c3e 100d 2b3e 08bc 8abd
00000170: 5f13 abbe a94a 6a3e 8b76 c9bd 54ae f3bd
00000180: 57ed 95ba 4fbc 9cbd b429 633e 9400 cfbc
00000190: 56a6 59bd c7e7 5abe 5283 cabd c2ff 4e3e
000001a0: 77e0 b33d 27bd 78bd 9df3 adbe fef0 f8bd
000001b0: b05d 9ebe 9225 153e 718f 093e 0ed1 973e
000001c0: 7969 06bc ea4a cb3e 03ae 30bc ce41 64be
000001d0: 3768 0ebe 8d8a 94bd 5ded b8be 2dd9 853d
000001e0: 4f70 223e dcb9 663e b3fe b5bd 496f 6a3e
000001f0: 9eaf 4b3e a7a3 443e 3135 013e ab3c bd3e

ff_layers.1.weight f4 [128, 128]
0.07302772 0.16448195 0.112039305 -0.06895488 -0.16637814 -0.03528645 0.045889303 -0.003861472
-0.050591294 0.0016407855 0.13771409 0.10839475 0.104187705 -0.0059460495 0.24421519 0.28875524
0.24216136 -0.14028011 0.045912646 0.1023272 0.07674991 0.08114761 0.17731746 0.0023308217
0.04978008 -0.02139952 0.045331378 0.04348361 0.027120605 0.11692785 0.01728361 -0.38740113
-0.009388961 -0.03149794 -0.005729992 -0.23527552 0.1524146 0.081536934 -0.47711012 0.08953764
-0.089614205 0.2766054 0.10088585 -0.026517482 -0.02116547 0.1291187 -0.25839674 0.0052478747
0.049931385 0.073351234 0.10821982 0.03831715 0.010733675 -0.0006374986 0.015797708 -0.117078565
0.12530217 -0.0017657994 -0.0685813 0.03226434 0.19654499 0.0054740533 -0.7837172 0.025914041
-0.06654999 -0.13523027 0.12966123 0.028924823 -0.047333486 0.181857 0.15441827 0.13596945
0.074822165 0.07217552 0.1865249 0.08657914 0.016705493 0.030188859 0.09530971 -0.17335437
0.206195 0.086447574 0.19451736 0.14561966 -0.1064577 0.07742838 0.038246535 0.20629826
0.050843738 0.1915582 -0.096345104 0.121981345 0.13772865 -0.51157886 -0.15257594 0.027885891
-0.04534339 0.2637218 -0.12410093 -0.019006902 -0.0024104377 0.098205715 -0.009073446 0.1712865
0.058942083 -0.09269337 0.14051594 0.5278227 0.054427795 -0.0012877827 0.24392636 0.17603824
-0.031011766 -0.30467588 0.053503163 0.30178237 0.10911841 0.09701203 -0.10859814 -0.014319063
-0.006984917 0.008163126 0.092905894 -0.11405025 -0.25740024 0.057067838 0.27333516 -0.06701705
-0.5082074 -2.1975467 -0.1675253 -0.053190753 0.3452119 0.060233902 0.24368343 0.04775273
0.15710539 0.12713832 0.78394854 -0.5501383 0.46496257 -0.08554333 -0.5135649 -0.13995485
1.5421212 0.46501666 -0.019225169 -0.017888505 0.088964194 -0.026655458 -0.14134967 0.83622956
-0.03367 -0.022738647 0.017198628 0.9251774 0.05989254 -2.145096 -0.8665334 0.10288907
0.02830229 0.013738431 -0.045327667 -0.004718128 1.4336812 0.119680084 0.0039786496 -0.18773498
-0.044446647 -0.18389164 -0.0357863 0.1431079 -0.029317524 -0.2558715 -0.059748415 0.059516437
0.29003108 0.024681669 0.022594115 0.016780652 0.26193112 0.12061006 0.05034115 -0.039531656
0.5554772 0.07031198 0.46019283 -0.012862664 -0.47178802 0.08048125 -0.5227566 -0.09506542
0.12698127 0.14365691 -0.68319803 -0.31098416 0.80062604 0.19011281 -0.3874546 -0.19204034
0.060994886 0.2376932 0.4917095 -0.38073286 -0.22814952 1.1945204 -0.4546471 0.5514932
-0.8700059 0.14571229 0.3070997 -0.20514904 -0.2552159 -0.03799263 0.05326704 -0.30085915
-0.065740824 -0.099705994 -0.28987238 -0.3556278 0.031102438 -0.09868704 -0.6147231 0.038808055
0.047816146 -0.18869661 0.13528123 -0.0110184755 -0.11267729 0.1420323 0.2568911 -0.10802231
0.23113772 0.17956896 0.16742045 -0.10088933 -0.023407096 0.020135995 -0.061465096 -0.4026118
-0.0457696 0.01500865 -0.023322549 -0.30730665 0.024235055 -0.016277105 -0.0654056 -0.0073941876
0.09759255 0.032004498 0.15203063 0.19407651 -0.123319745 0.029886007 -0.17312911 -2.5482123
00000000: 8f8f 953d f56d 283e dd74 e53d 3738 8dbd
00000010: 085f 2abe 8688 10bd 6cf6 3b3d c010 7dbb
00000020: d138 4fbd a00f d73a ec04 0d3e 11fe dd3d
00000030: 5d60 d53d 14d7 c2bb 8c13 7a3e bad7 933e
00000040: 26f9 773e 97a5 0fbe e60e 3c3d ec90 d13d
00000050: 0f2f 9d3d b830 a63d b592 353e b3c0 183b
00000060: 32e6 4b3d 0c4e afbc 65ad 393d df1b 323d
00000070: 082c de3c de77 ef3d 5b96 8d3c 7159 c6be
00000080: 28d4 19bc fc03 01bd a8c2 bbbb 11ec 70be
00000090: 9312 1c3e d6fc a63d c747 f4be 835f b73d
000000a0: a787 b7bd 399f 8d3e 3e9d ce3d 313b d9bc
000000b0: 3563 adbc b137 043e 944c 84be 5df6 ab3b
000000c0: da84 4c3d 2c39 963d 5aa2 dd3d 72f2 1c3d
000000d0: 4cdc 2f3c cf1d 27ba 326a 813c e3c6 efbd
000000e0: 364f 003e 6572 e7ba 5a74 8cbd 9d27 043d
000000f0: 1743 493e b05f b33b b1a1 48bf af49 d43c
00000100: 5c4b 88bd ce79 0abe eac5 043e c0f3 ec3c
00000110: c2e0 41bd b938 3a3e d31f 1e3e 933b 0b3e
00000120: 5d3c 993d c2d0 933d 6200 3f3e 6750 b13d
00000130: f5d9 883c a04e f73c bd31 c33d cf83 31be
00000140: c824 533e 6d0b b13d 8f2f 473e 521d 153e
00000150: 7f06 dabd c592 9e3d 66a8 1c3d da3f 533e
00000160: 8641 503d d527 443e 9550 c5bd 5bd1 f93d
00000170: bd08 0d3e d5f6 02bf de3c 1cbe f470 e43c
00000180: feb9 39bd 8b06 873e a128 febd 5db4 9bbc
00000190: 6ff8 1dbb 1420 c93d caa8 14bc ba65 2f3e
000001a0: 416d 713d 06d6 bdbd 69e3 0f3e 631f 073f
000001b0: aeef 5e3d d1ca a8ba d5c7 793e 5e43 343e
000001c0: 630c febc 7afe 9bbe 2226 5b3d 3883 9a3e
000001d0: 7979 df3d 3eae c63d b468 debd 819a 6abc
000001e0: bbe1 e4bb a2be 053c 7245 be3d 2d93 e9bd
000001f0: f7c9 83be f7bf 693d 96f2 8b3e 3c40 89bd
00000200: e119 02bf 9ba4 0cc0 c18b 2bbe 8cde 59bd
00000210: 9dbf b03e d3b7 763d 2688 793e 5e98 433d
00000220: 3ce0 203e 8c30 023e dab0 483f ddd5 0cbf
00000230: 930f ee3e 5731 afbd fd78 03bf 5350 0fbe
00000240: 3a64 c53f aa16 ee3e 1a7e 9dbc ea8a 92bc
00000250: dc32 b63d 8c5c dabc f8bd 10be 2413 563f
00000260: 8ee9 09bd 6646 babc 23e4 8c3c 6dd8 6c3f
00000270: e151 753d 4149 09c0 22d5 5dbf 81b7 d23d
00000280: 34da e73c 2817 613c 81a9 39bd 879a 9abb
00000290: de82 b73f d51a f53d 555f 823b 993d 40be
000002a0: b00d 36bd 174e 3cbe a894 12bd e18a 123e
000002b0: 4e2b f0bc 9701 83be c1ba 74bd 82c7 733d
000002c0: f47e 943e 3631 ca3c 4b17 b93c 9477 893c
000002d0: d61b 863e 6802 f73d 8632 4e3d f2eb 21bd
000002e0: c133 0e3f baff 8f3d 659e eb3e ecbd 52bc
000002f0: 338e f1be 5bd3 a43d 60d3 05bf a9b1 c2bd
00000300: 6107 023e cc1a 133e 11e6 2ebf 5139 9fbe
00000310: d4f5 4c3f efac 423e 7360 c6be 39a6 44be
00000320: c6d5 793d d965 733e 59c1 fb3e 6bef c2be
00000330: 07a0 69be 0be6 983f 81c7 e8be a92e 0d3f
00000340: b5b8 5ebf 9a35 153e 2c3c 9d3e 9712 52be
00000350: a9ab 82be 299e 1bbd 8a2e 5a3d 360a 9abe
00000360: 20a3 86bd a832 ccbd 276a 94be d914 b6be
00000370: 8aca fe3c 6e1c cabd 7e5e 1dbf 32f5 1e3d
00000380: ddda 433d af39 41be 2a87 0a3e d686 34bc
00000390: 5ac3 e6bd ea70 113e 3b87 833e cd3a ddbd
000003a0: 5eaf 6c3e ede0 373e 4470 2b3e 119f cebd
000003b0: 3dc0 bfbc 3ef4 a43c d3c2 7bbd 2223 cebe
000003c0: e778 3bbd d7e6 753c ee0e bfbc 4c57 9dbe
000003d0: 9888 c63c 9057 85bc 5ff3 85bd f14a f2bb
000003e0: 9ade c73d 2617 033d ebad 1b3e febb 463e
000003f0: 108f fcbd 80d3 f43c c248 31be e915 23c0

ff_layers.1.bias f4 [128]
0.12229787 0.13595697 0.1710852 0.01758326 0.01089628 -0.06681967 0.11873466 -0.16435786
0.2696518 -0.13627362 -0.10785227 0.056000914 0.002446279 0.12129915 0.3820269 0.12809232
0.15739644 0.41925642 0.41340268 -0.04890831 0.112215556 0.00072909205 0.2110284 -0.027404714
-0.044753857 0.47321898 -0.08405639 -0.042763412 -0.09996127 -0.006998487 0.13119876 -0.008168892
-0.07051175 0.0644273 -0.115241684 0.08647207 -0.016596904 0.1770692 -0.08127917 -0.029435353
0.054162487 -0.03543602 0.6133612 0.11732085 0.25936377 -0.03593881 0.059151765 0.1140129
0.106093995 0.28246027 0.63006985 0.03697862 0.16274622 -0.10473182 0.35164607 0.13539915
-0.054938395 -0.02741689 0.17853159 -0.014824697 0.029730337 -0.04273911 -0.04246786 0.3775466
0.53374463 0.2056968 0.7960204 0.10305929 0.013838821 0.029577553 0.40040785 0.09307433
0.30828953 0.23485345 0.0867586 -0.09942026 0.08146947 0.0897559 0.34285873 0.10984691
-0.1306981 -0.06598436 0.24141054 0.5704122 0.29875824 0.01704269 -0.015116226 -0.034944825
-0.42645088 0.08767312 0.27680436 0.016567187 0.108147755 0.10842085 0.33754215 -0.14217407
0.09518404 -0.09008059 0.43727526 0.11633652 -0.5704561 0.14547893 -0.0033821985 -0.033078298
0.074342325 -0.004785004 -0.07376887 0.112592265 -0.122417346 0.17953056 0.14764205 0.15293077
0.24905494 0.11307642 -0.06526378 0.0016149064 0.21142825 0.058467336 0.044821005 0.41023698
-0.0055486136 -0.4854802 0.067380875 0.035722286 -0.017583452 -0.12649699 0.035583977 0.021988528
00000000: 4e77 fa3d 4e38 0b3e f530 2f3e c50a 903c
00000010: 5086 323c c0d8 88bd 282b f33d 6d4d 28be
00000020: cd0f 8a3e 508b 0bbe a7e1 dcbd 3761 653d
00000030: c051 203b b06b f83d 0899 c33e a22a 033e
00000040: 882c 213e c7a8 d63e 84a9 d33e 1454 48bd
00000050: 45d1 e53d 8a20 3f3a d417 583e da7f e0bc
00000060: d24f 37bd c249 f23e c225 acbd b028 2fbd
00000070: 7fb8 ccbd 9053 e5bb f858 063e d1d6 05bc
00000080: 7768 90bd 76f2 833d d503 ecbd 4518 b13d
00000090: 3bf6 87bc a151 353e b275 a6bd 6922 f1bc
000000a0: 7cd9 5d3d 5c25 11bd 3d05 1d3f ea45 f03d
000000b0: 54cb 843e 9334 13bd 1f49 723d 987f e93d
000000c0: cf47 d93d a29e 903e 424c 213f e576 173d
000000d0: f2a6 263e a37d d6bd f40a b43e 13a6 0a3e
000000e0: 1507 61bd 6399 e0bc fcd0 363e 49e3 72bc
000000f0: 098d f33c 340f 2fbd c7f2 2dbd ca4d c13e
00000100: 7da3 083f 2fa2 523e fec7 4b3f c010 d33d
00000110: 39bc 623c a04c f23c 4202 cd3e c19d be3d
00000120: 20d8 9d3e 6c7d 703e 7eae b13d d99c cbbd
00000130: 77d9 a63d f1d1 b73d 2e8b af3e 6bf7 e03d
00000140: b9d5 05be cf22 87bd 5334 773e 8906 123f
00000150: d7f6 983e 1d9d 8b3c 0caa 77bc 4e22 0fbd
00000160: c557 dabe f78d b33d 4db9 8d3e e9b7 873c
00000170: 927c dd3d c00b de3d 53d2 ac3e 1496 11be
00000180: daef c23d 2c7c b8bd 8be2 df3e d741 ee3d
00000190: 6909 12bf 6ef8 143e e0a7 5dbb 1c7d 07bd
000001a0: ca40 983d 86cb 9cbb 2214 97bd c696 e63d
000001b0: f2b5 fabd dcd6 373e 7a2f 173e e299 1c3e
000001c0: 4208 7f3e 9c94 e73d 04a9 85bd 44ab d33a
000001d0: a680 583e 727b 6f3d 3b96 373d 950a d23e
000001e0: 25d1 b5bb dc90 f8be fcfe 893d 8851 123d
000001f0: 2c0b 90bc 6d88 01be 81c0 113d 4921 b43c

ff_layers.2.weight f4 [2, 128]
0.21827151 1.4412427 0.83317184 -1.3948594 0.06488249 -1.4394836 1.5398268 0.09965894
0.6476469 -0.08989526 -0.00458829 0.13511087 0.5722291 -0.33773494 -0.4649991 -0.3660219
-1.4695609 -0.5035315 -0.4090916 -0.06835071 0.34931186 0.015132048 -0.22610578 0.09965782
-0.13126333 -0.583768 0.023665782 1.7887288 0.020787993 -0.07305012 0.34804177 0.0065277573
0.079058826 0.2555585 0.010641377 -0.008710593 0.059900712 0.18417796 -0.017977567 -1.7354594
0.13533114 0.015565891 -0.62206286 -1.1509428 -0.35718587 1.3091406 0.19527487 1.6767231
0.08810714 -0.48758876 0.5248336 0.16168167 -1.7263838 -0.108281694 -0.59210837 0.08572701
-0.059782274 -0.071213424 -0.55327564 2.5075717 1.0646985 -1.7053145 -0.09262346 -0.4171561
-0.5099078 -0.12420175 -0.68071383 0.2543592 1.3900023 1.1968206 -0.50044346 0.16306219
-0.47735715 -0.13506512 0.11531578 -0.027150948 -1.4356673 -1.54418 -0.28951186 -1.1066308
0.039526623 -0.030234324 1.0945143 -0.47110042 -0.5323187 0.15220694 -1.7203597 0.20221438
2.342606 0.34038675 -0.12618762 1.55208 -1.412413 0.24547358 -0.45634633 0.04446471
-1.8402513 0.01662938 -0.7346444 -1.208436 3.7413208 0.25942317 0.035615005 0.0269426
1.226858 -1.1834207 0.116569415 0.1960647 0.042650074 -0.48745078 0.41630262 0.20084472
-0.37829357 1.3476467 -0.0022855166 -0.9167879 -0.30400348 0.18641703 -1.9205064 -0.5070183
0.31042105 -3.609286 0.16649675 0.048515372 -0.12814505 0.03658143 -1.3271675 1.6332629
0.121341534 1.7342455 0.25806904 -1.7194216 -0.004573277 -1.6282603 1.4321095 -0.019922238
0.44639876 -0.01534109 0.08831631 0.2208601 -0.6187358 -0.012232062 -0.3670537 -0.4697325
-1.5028564 -0.39692864 -0.42650625 -0.024015877 -0.6839597 -0.006101714 -0.1444592 -0.003587916
-0.7243291 -0.4635438 0.042940218 1.8620744 -0.025268193 -0.029152017 0.11036585 -0.04547442
0.025191892 0.08201405 -0.11386457 0.071458034 -0.46729782 -0.0036269862 0.04106512 -0.86517364
-0.35640442 -0.009570636 -0.52654344 -2.2305007 -0.22504547 1.503206 -0.057408992 1.4978428
-0.3801857 -0.25906286 0.61391217 0.28136134 -0.40887964 0.030094309 -0.31768462 -0.3751341
0.00028728403 -0.022875194 -0.24327993 2.037123 1.6069366 -0.51791143 0.02597726 -0.27407962
-0.3610943 0.3773626 -0.54456055 0.12990908 1.131838 1.4580333 -0.3218561 0.3594658
-0.2873507 -0.172674 0.006348707 -0.015135116 -1.735516 -1.5103304 -0.17353201 -1.2747743
0.029218875 0.03321234 1.5287801 -0.42064708 -0.42752466 0.1916902 1.4981576 -0.36056507
2.0526981 0.17698646 -0.14349297 1.7591783 -1.2850578 0.114671715 -0.21080625 0.046926394
-1.3728719 0.08478815 -0.5420534 -1.3318343 1.9504967 -0.05333754 0.07618528 -0.08872358
1.5735632 -1.7433871 -0.104503006 -0.006926369 -0.0050125546 -0.052390907 0.16801476 0.003017097
-0.02340984 1.64397 0.11172093 -1.7419349 0.3979613 0.3009914 -1.1641626 -0.4204577
0.00035479368 -1.8647712 -0.059091814 -0.03897 0.0041174754 -0.0008732463 -1.3668739 0.94593644
00000000: 9182 5f3e a47a b83f c04a 553f c18a b2bf
00000010: 1ce1 843d 0041 b8bf 0b19 c53f fd19 cc3d
00000020: 30cc 253f 021b b8bd 5e59 96bb 815a 0a3e
00000030: 9b7d 123f 98eb acbe 5d14 eebe 3967 bbbe
00000040: 921a bcbf 71e7 00bf 7474 d1be 75fb 8bbd
00000050: 01d9 b23e 69ec 773c 4688 67be 6619 cc3d
00000060: e569 06be d271 15bf bede c13c 11f5 e43f
00000070: 954b aa3c 4d9b 95bd 8832 b23e cce6 d53b
00000080: 98e9 a13d 90d8 823e 2c59 2e3c e0b6 0ebc
00000090: 735a 753d 2699 3c3e b145 93bc 8923 debf
000000a0: 3f94 0a3e 1408 7f3c 833f 1fbf 1852 93bf
000000b0: 11e1 b6be eb91 a73f 23f6 473e dd9e d63f
000000c0: 8471 b43d 3ca5 f9be 7f5b 063f e18f 253e
000000d0: 25fa dcbf cbc2 ddbd 6a94 17bf a591 af3d
000000e0: 42de 74bd 58d8 91bd 79a3 0dbf 0e7c 2040
000000f0: 0a48 883f bf47 dabf 5eb1 bdbd 7c95 d5be
00000100: 5189 02bf 7d5d febd 4343 2ebf 5e3b 823e
00000110: 98eb b13f 6b31 993f 101d 00bf c6f9 263e
00000120: 2868 f4be 834e 0abe ae2a ec3d aa6b debc
00000130: f2c3 b7bf b1a7 c5bf e63a 94be 14a6 8dbf
00000140: abe6 213d f9ad f7bc 0b19 8c3f 1334 f1be
00000150: 0a46 08bf 23dc 1b3e bf34 dcbf 4911 4f3e
00000160: 42ed 1540 2c47 ae3e 5437 01be 8faa c63f
00000170: f3c9 b4bf 6d5d 7b3e 3aa6 e9be a120 363d
00000180: 5b8d ebbf 563a 883c a811 3cbf 08ae 9abf
00000190: cd71 6f40 1dd3 843e 0ae1 113d bab6 dc3c
000001a0: af09 9d3f 547a 97bf f2bb ee3d 2fc5 483e
000001b0: d8b1 2e3d 2693 f9be 9e25 d53e 3daa 4d3e
000001c0: b2af c1be b07f ac3f 9bc8 15bb 9db2 6abf
000001d0: 58a6 9bbe 1be4 3e3e 27d3 f5bf f4cb 01bf
000001e0: 82ef 9e3e 8bfe 66c0 207e 2a3e 0eb8 463d
000001f0: 7538 03be 69d6 153d a0e0 a9bf c20e d13f
00000200: e981 f83d c2fb dd3f a021 843e 0216 dcbf
00000210: 6edb 95bb d56a d0bf 5d4f b73f f633 a3bc
00000220: 618e e43e 3259 7bbc 2edf b43d 2629 623e
00000230: 7865 1ebf fd68 48bc 76ee bbbe c780 f0be
00000240: 995d c0bf 3b3a cbbe 075f dabe f2bc c4bc
00000250: fc17 2fbf e3f0 c7bb 1ded 13be 3e23 6bbb
00000260: a26d 39bf 9d55 edbe 15e2 2f3d 7458 ee3f
00000270: 3eff cebc 36d0 eebc 7e07 e23d 6343 3abd
00000280: 3a5f ce3c fbf6 a73d d431 e9bd 9758 923d
00000290: a941 efbe bbb2 6dbb e633 283d 057c 5dbf
000002a0: a47a b6be 28ce 1cbc 8dcb 06bf 86c0 0ec0
000002b0: 5272 66be 0e69 c03f b125 6bbd 50b9 bf3f
000002c0: b3a7 c2be e3a3 84be 5929 1d3f 980e 903e
000002d0: ac58 d1be 5788 f63c 8fa7 a2be 9411 c0be
000002e0: 9c9e 9639 c264 bbbc 601e 79be 3960 0240
000002f0: 19b0 cd3f d895 04bf 43ce d43c 2a54 8cbe
00000300: 5ae1 b8be ac35 c13e 5268 0bbf e306 053e
00000310: 11e0 903f d6a0 ba3f 53ca a4be e70b b83e
00000320: a21f 93be 74d1 30be d008 d03b 47f9 77bc
00000330: 6325 debf 8252 c1bf 60b2 31be ce2b a3bf
00000340: 6c5c ef3c aa09 083d 11af c33f 0e5f d7be
00000350: 83e4 dabe 704a 443e a1c3 bf3f fc9b b8be
00000360: 685f 0340 f03b 353e d2ef 12be c12c e13f
00000370: c67c a4bf 01d9 ea3d 98dd 57be e435 403d
00000380: 44ba afbf 69a5 ad3d 03c4 0abf 8c79 aabf
00000390: e0a9 f93f 7778 5abd 0707 9c3d b5b4 b5bd
000003a0: 856a c93f 4f27 dfbf ac05 d6bd 98f6 e2bb
000003b0: 5b40 a4bb d997 56bd 100c 2c3e 7dba 453b
000003c0: fec5 bfbc 9c6d d23f f1cd e43d b9f7 debf
000003d0: 95c1 cb3e 8b1b 9a3e 4803 95bf 3b46 d7be
000003e0: 9a03 ba39 d3b0 eebf 420a 72bd 029f 1fbd
000003f0: e3eb 863b 91ea 64ba b9f5 aebf e428 723f

ff_layers.2.bias f4 [2]
-0.06257736 -0.018372862
00000000: 8f28 80bd af82 96bc
