pytorch/coco-100strats.pt (torch_old, 75409 bytes, 6 tensors)

ff_layers.0.weight f4 [128, 13]
0.21946052 0.6569995 -0.44392356 0.386089 -0.31544897 -0.2915147 -0.52865875 -0.45220384
-0.012833125 0.5447225 -0.24538316 -0.25614575 0.06022384 -0.1789423 -0.14721112 0.2723004
-0.07690107 0.18160969 0.002619092 0.2098173 0.43125197 0.34627986 0.018402722 0.32395518
-0.081915796 0.09679335 -0.20621419 -0.64407533 -0.19435558 0.14289907 -0.1482337 0.3631109
0.39771512 0.37777644 -0.048302684 -0.25740567 0.14859512 -0.092316724 -0.26804662 -0.3915123
-0.7408937 0.29952082 -0.521137 0.28413716 -0.05947286 0.114721455 0.037778735 -0.06922713
-0.4651372 0.38274267 -0.011964739 0.38188425 0.26208735 0.62392634 -0.09351369 0.0041284882
-0.349741 -0.5241301 -0.43427244 -0.20209715 0.1956059 0.12680143 0.07098241 0.21960141
-0.06330934 0.46162158 0.6983514 -0.42056334 0.28563455 -0.3352925 -0.60357183 -0.6060378
-0.21249318 -0.040583823 -0.04711415 -0.3482706 -0.02301267 0.08726947 0.38590595 -0.82200116
0.37816823 -0.41535315 -0.09678505 -0.07927336 -0.12234662 -0.30143434 0.046492707 -0.24318728
0.8388413 0.07056292 0.09250587 0.47246546 1.5053487 0.10414978 0.42959398 -0.82769233
-0.60720223 -0.7202987 -1.0536928 -0.091868475 0.35559732 -0.11564363 0.068136156 -0.10577203
-0.331143 0.744405 -0.60300165 0.5181042 -0.6224579 -0.9888826 -0.4680445 -0.8115928
-0.08163188 1.5959712 -0.35819206 0.27159116 0.46057013 -0.22298196 -0.41591173 0.45487958
-0.07700993 -0.45936474 -0.48040217 -0.5057413 -0.50082296 -0.15508962 0.039813776 -0.18296906
0.27882513 0.3173146 0.2722429 -0.63850224 -0.1453531 -0.23897742 -0.63602066 -0.7394559
-0.8451032 -0.8051412 -0.20072757 -0.23916772 1.4646876 0.27251625 -0.040543925 0.7143968
-0.858984 0.44198513 -0.59819525 -0.8629306 -0.92288846 -0.9777344 -0.84963644 -0.22455709
-0.33241826 1.8678681 0.33489987 0.25703353 0.15653263 0.56093633 -0.23401126 0.2255019
-0.44286084 -0.5787995 -0.3249118 -0.6251498 0.06895502 0.19350792 -0.43005207 0.11849315
0.10910701 0.008675643 0.5114777 -0.17252712 0.08533906 -0.17044151 0.032635506 -0.34622088
0.12790315 0.010992901 -0.12685882 -0.29206908 -0.2923513 -0.25950754 -0.6724126 -0.21703856
-0.17757902 0.30154487 -0.3973095 -0.029970583 -0.11864056 0.07876336 0.096546456 1.3599966
-0.10204167 0.5651427 0.5438194 -0.88824594 -0.096071355 -0.8445396 0.48349425 -0.29751784
-0.78840905 -0.65011346 -0.8189061 0.042378575 1.8309189 -0.1186475 0.1935023 0.2004673
-0.16957697 -0.64272165 0.4829248 -0.41682523 0.37644115 0.13310075 0.17496559 0.04624588
0.097773835 -0.22263533 0.6562081 0.42903283 0.035519198 -0.05052015 0.37406316 -0.30723286
0.3093852 -0.15711159 -0.26921722 0.15171228 0.054342546 -0.023326904 -0.09811254 -0.47997254
-0.34147727 -0.27617538 0.15952666 -0.46363613 0.16988799 -0.24131486 0.23083383 -0.004167575
0.14086846 0.014026664 0.21169558 -0.17785324 -0.06491092 -0.16140382 -0.24385594 0.03425233
0.0023383105 0.17747375 -0.09525314 0.33151308 0.12793112 0.35554105 0.09955025 0.2633603
00000000: 42ba 603e 1f31 283f f349 e3be 75ad c53e
00000010: 8782 a1be 6a41 95be 2e56 07bf 4387 e7be
00000020: 0742 52bc ef72 0b3f b945 7bbe 8925 83be
00000030: 46ad 763d a63c 37be 83be 16be f56a 8b3e
00000040: 4f7e 9dbd e4f7 393e 12a5 2b3b 59da 563e
00000050: 0fcd dc3e 984b b13e 4ec1 963c 74dd a53e
00000060: 78c3 a7bd 983b c63d d029 53be 1fe2 24bf
00000070: 2605 47be 2254 123e 93ca 17be ace9 b93e
00000080: 51a1 cb3e ea6b c13e 09d9 45bd adca 83be
00000090: 5229 183e 8d10 bdbd 683d 89be 4d74 c8be
000000a0: 36ab 3dbf cb5a 993e 3c69 05bf 6d7a 913e
000000b0: d099 73bd 15f3 ea3d e0bd 1a3d f4c6 8dbd
000000c0: 7726 eebe d9f6 c33e c107 44bc 5586 c33e
000000d0: 5030 863e a3b9 1f3f 1b84 bfbd 4548 873b
000000e0: 4111 b3be 642d 06bf f558 debe 8ef2 4ebe
000000f0: ea4c 483e 3cd8 013e 3a5f 913d 31df 603e
00000100: 54a8 81bd aa59 ec3e 28c7 323f 1454 d7be
00000110: b13e 923e 75ab abbe af83 1abf 4b25 1bbf
00000120: d097 59be 393b 26bd c4fa 40bd 8650 b2be
00000130: 1185 bcbc 56ba b23d 7795 c53e ab6e 52bf
00000140: 449f c13e 2ba9 d4be 3e37 c6bd 125a a2bd
00000150: dd90 fabd 9a55 9abe 236f 3e3d 1606 79be
00000160: 4ebe 563f 4b83 903d b873 bd3d fee6 f13e
00000170: 44af c03f 7b4c d53d bef3 db3e a5e3 53bf
00000180: 9b71 1bbf 7f65 38bf 68df 86bf 8a25 bcbd
00000190: da10 b63e 91d6 ecbd f88a 8b3d 029f d8bd
000001a0: 938b a9be 5391 3e3f 515e 1abf 7aa2 043f
000001b0: 6759 1fbf 6927 7dbf 87a3 efbe 8cc4 4fbf
000001c0: 9d2e a7bd c948 cc3f f364 b7be ff0d 8b3e
000001d0: d9cf eb3e 6255 64be 62f2 d4be fae5 e83e
000001e0: 62b7 9dbd db31 ebbe 46f7 f5be 4378 01bf
000001f0: ef35 00bf d0cf 1ebe c513 233d 3e5c 3bbe
00000200: 2bc2 8e3e 0f77 a23e 6c63 8b3e e274 23bf
00000210: 71d7 14be 7fb6 74be 40d2 22bf fb4c 3dbf
00000220: af58 58bf bc1d 4ebf 878b 4dbe 62e8 74be
00000230: e27a bb3f 4087 8b3e 6311 26bd b5e2 363f
00000240: 60e6 5bbf e04b e23e 5323 19bf 05e9 5cbf
00000250: 6b42 6cbf cd4c 7abf c681 59bf 4bf2 65be
00000260: ba32 aabe 4d16 ef3f ff77 ab3e e699 833e
00000270: 174a 203e 8699 0f3f a6a0 6fbe f8e9 663e
00000280: a8be e2be 342c 14bf d75a a6be d109 20bf
00000290: 4a38 8d3d f126 463e c92f dcbe 89ac f23d
000002a0: 7f73 df3d 4924 0e3c 34f0 023f f3aa 30be
000002b0: 3fc6 ae3d 3888 2ebe cfac 053d dd43 b1be
000002c0: 0bf9 023e 921b 343c 47e7 01be 148a 95be
000002d0: 12af 95be 2cde 84be 3b23 2cbf 5b3f 5ebe
000002e0: 46d7 35be 1764 9a3e 276c cbbe de84 f5bc
000002f0: d2f9 f2bd af4e a13d 26ba c53d 5e14 ae3f
00000300: 39fb d0bd 31ad 103f c037 0b3f 1664 63bf
00000310: 0fc1 c4bd bf33 58bf 8f8c f73e 4254 98be
00000320: 2dd5 49bf d66d 26bf d5a3 51bf 2895 2d3d
00000330: 8d5b ea3f 76fd f2bd 7825 463e 4d47 4d3e
00000340: 96a5 2dbe 6889 24bf eb41 f73e 1e6a d5be
00000350: e5bc c03e 904b 083e 2e2a 333e 526c 3d3d
00000360: a63d c83d 84fa 63be 41fd 273f 31aa db3e
00000370: 947c 113d 38ee 4ebd 3585 bf3e a04d 9dbe
00000380: bd67 9e3e dce1 20be d7d6 89be 775a 1b3e
00000390: 4a96 5e3d 1018 bfbc 3aef c8bd f6be f5be
000003a0: 1cd6 aebe dc66 8dbe f55a 233e b761 edbe
000003b0: 1ef7 2d3e 3e1b 77be b45f 6c3e 2790 88bb
000003c0: d23f 103e 18d0 653c bac6 583e 291f 36be
000003d0: 04f0 84bd 0b47 25be 5fb5 79be 2c4c 0c3d
000003e0: 573e 193b aebb 353e 1414 c3bd 15bc a93e
000003f0: 6000 033e 7a09 b63e 00e1 cb3d 29d7 863e

ff_layers.0.bias f4 [128]
-0.20852634 0.5718958 0.27602962 0.06261047 0.51095337 0.04722137 0.082854785 0.03032746
0.058082685 -0.033863198 0.22110584 -0.34831038 -0.0018078292 0.008181721 -0.24125849 0.36982092
-0.035849243 -0.106348 0.16437085 0.3823007 0.04554288 0.14205928 -0.06722267 -0.32035214
0.65536237 -0.27019787 0.087668225 -0.0794954 0.15635057 0.1784838 0.23225664 -0.035928477
0.1633214 -0.17855442 -0.45274496 0.014847849 -0.30635846 0.030571565 -0.010428586 0.14872965
-0.122159466 0.24459594 -0.12908961 0.27074927 0.30516174 -0.1285625 -0.21467255 0.4080689
0.3174435 -0.04317466 0.125302 -0.14645368 0.256521 -0.27069184 0.061552618 0.110757165
-0.0051588113 0.080189124 -0.10698918 -0.28057575 0.14952281 -0.4004288 -0.16982245 -0.22520268
0.2799592 0.012939969 0.07315143 -0.06523112 -0.08935432 -0.13751431 -0.07867259 -0.23183173
-0.07066211 -0.14897308 -0.15464453 -0.13484646 0.018025637 -0.02749635 -0.03302958 -0.09186912
-0.09060345 -0.062391233 0.031743377 -0.23005736 -0.08960192 -0.010494828 -0.09518613 0.048144605
0.20482963 -0.04237607 0.23992853 -0.19704197 0.08746685 0.012140824 0.18113121 0.41159043
0.28703636 0.2728764 0.003082381 -0.3864388 -0.16765833 -0.04962454 0.3718421 -0.22078434
0.21214452 -0.15568799 -0.253192 0.40823367 -0.2800876 0.2741933 -0.12133392 0.18685125
-0.3881549 0.74416274 0.2610285 0.08858308 0.29161125 0.049000252 0.026023353 -4.027263e-05
0.13605177 -0.02094009 0.34082532 -0.2187664 -0.21765825 0.368686 0.17871197 -0.09423171
00000000: ee87 55be c367 123f c153 8d3e eb39 803d
00000010: d7cd 023f 326b 413d c5af a93d 4b71 f83c
00000020: 1ce8 6d3d 23b4 0abd 9269 623e bd55 b2be
00000030: aff4 ecba a00c 063c 770c 77be 2b59 bd3e
00000040: a8d6 12bd fbcc d9bd d550 283e ebbc c33e
00000050: 2c8b 3a3d fd77 113e 0aac 89bd 3205 a4be
00000060: d4c5 273f 6057 8abe 668b b33d 7cce a2bd
00000070: 5d1a 203e 75c4 363e afd4 6d3e bd29 13bd
00000080: ba3d 273e f8d6 36be 30ce e7be 6444 733c
00000090: 04db 9cbe 3871 fa3c a9dc 2abc 964c 183e
000000a0: be2e fabd 5c77 7a3e 1130 04be a69f 8a3e
000000b0: 293e 9c3e e3a5 03be 1fd3 5bbe 68ee d03e
000000c0: f487 a23e ead7 30bd 2b4f 003e f4f7 15be
000000d0: b856 833e 1f98 8abe 991e 7c3d a7d4 e23d
000000e0: 3f0b a9bb 323a a43d 251d dbbd a0a7 8fbe
000000f0: 821c 193e 0105 cdbe f0e5 2dbe 889b 66be
00000100: d056 8f3e 2a02 543c 6bd0 953d e597 85bd
00000110: 66ff b6bd 8dd0 0cbe 181f a1bd 4c65 6dbe
00000120: 4cb7 90bd 668c 18be 235b 1ebe 3115 0abe
00000130: 80aa 933c 0740 e1bc 064a 07bd e125 bcbd
00000140: 4d8e b9bd f38d 7fbd 5805 023d 2894 6bbe
00000150: 3681 b7bd 80f2 2bbc f2f0 c2bd 4733 453d
00000160: dcbe 513e 8892 2dbd d3af 753e 5fc5 49be
00000170: d221 b33d 4fea 463c 767a 393e fbbb d23e
00000180: 6ef6 923e 75b6 8b3e c601 4a3b 4edb c5be
00000190: a0ae 2bbe 1a43 4bbd 1662 be3e 4a15 62be
000001a0: 6a3c 593e ac6c 1fbe 62a2 81be 0104 d13e
000001b0: a467 8fbe 1063 8c3e eb7d f8bd ef55 3f3e
000001c0: 3dbc c6be 7381 3e3f 87a5 853e 0c6b b53d
000001d0: 124e 953e 7db4 483d ed2e d53c 68ea 28b8
000001e0: 2851 0b3e 8d8a abbc a880 ae3e 4d04 60be
000001f0: cee1 5ebe 69c4 bc3e 4500 373e 8efc c0bd

ff_layers.1.weight f4 [128, 128]
0.36465985 0.21936071 0.07284815 0.33961874 0.36352935 0.35116243 0.069546364 -0.29966348
-2.3562927 0.0018848205 0.26155525 0.71311915 0.20620395 0.24672155 -5.70583 -0.27978626
0.5343353 0.050024733 0.24699911 0.27214292 -0.009118501 0.20613672 0.07607757 -0.07749099
0.29462084 0.0010393709 0.15312661 -0.128582 0.11551956 0.19822124 -0.45771715 0.57146704
-0.25229132 -0.015223088 -0.018362885 0.102176726 -0.026012925 0.4664378 -0.43119818 0.022406159
0.006585956 0.06547051 0.1215145 -0.92605954 0.20022687 0.024597488 0.8716807 0.21242635
0.7062566 0.13582711 0.17604795 -0.29562843 0.24555008 0.24448334 0.3036615 0.086556986
0.04476595 -0.2352729 -0.41695616 -0.090177104 0.20060617 0.29922882 0.18618113 -0.017605271
0.11876988 0.017957838 0.10329415 0.024682168 0.12814228 -0.0013502826 -0.100093625 -0.03505475
0.07823368 0.049943898 -0.8847031 0.079470046 0.06298875 -0.065176845 -0.16063952 -0.3332523
-0.07157157 0.31594533 0.009217598 -0.032155473 -0.38678512 0.040087588 -0.021774229 0.15778472
-0.04966083 0.081620045 0.0262227 0.008875599 -0.032336157 0.097932324 0.08421544 0.17818138
0.35167223 -0.24647969 0.20089316 -0.0065495195 0.4291862 -0.24559742 0.1456088 0.07429267
0.11967122 0.02210964 0.12560184 0.23322481 0.015020717 0.087649696 0.124333136 0.044200584
0.12229349 0.28510204 -0.027662568 0.58072954 0.09218837 0.11003282 0.5220722 -0.80450124
0.021457953 -0.13804543 0.3241365 0.8991838 -0.078000076 0.15629992 0.28167355 0.1640844
-0.056088615 -0.09623581 -0.0078015155 -0.117815636 -0.10704445 -0.068079084 -0.008502924 -0.0280713
-0.04745358 -0.038255658 -0.01900657 -0.13491999 -0.029222203 -0.09851589 0.06332245 0.08494332
0.014008381 0.014967683 -0.114823304 -0.097025804 -0.0040313005 -0.074132375 0.06289273 -0.017798536
-0.12557267 0.041497596 0.014248013 0.0064277872 -0.11276425 -0.002113496 -0.018531516 0.0047394843
-0.041498955 -0.052298106 0.01112883 -0.011534975 -0.07965814 -0.10727453 0.018006735 -0.052263863
-0.09791318 -0.11956165 0.0009833717 -0.009307981 -0.11431198 0.034304902 -0.06126278 -0.14059485
-0.121887036 -0.07747814 0.014676986 0.034797363 -0.041404564 -0.14801614 -0.12357534 -0.09823022
-0.029793877 -0.087681994 -0.033396993 -0.017084945 -0.056474514 -0.017874785 -0.050283086 -0.0863007
-0.051379535 -0.09049471 -0.09412706 -0.08864868 0.027240314 -0.09276805 0.02812941 -0.07424187
-0.065332174 -0.021074846 0.060059927 -0.075311996 0.0651525 -0.07222453 -0.118245326 -0.04350217
0.067028455 -0.024038617 0.02681613 0.042652927 -0.04998089 -0.03661872 -0.03839468 0.0075635663
-0.030466197 0.05959279 -0.031287733 -0.028140124 0.043968387 0.0114656165 -0.0007896285 -0.11773553
0.023613602 -0.027463673 -0.037687443 -0.0035922844 -0.061684225 -0.062855914 -0.04127548 -0.086275116
-0.14187886 0.020388886 -0.048194427 -0.08861145 -0.14662349 -0.09747417 0.011801824 -0.007276796
-0.08547064 -0.09924924 0.0073429644 0.08344216 -0.024626274 -0.052085 -0.0239814 -0.13144675
-0.01181433 -0.065175585 -0.077189244 0.026879888 0.028919324 -0.077184446 -0.12463668 -0.0704232
00000000: b2b4 ba3e 18a0 603e 6931 953d 82e2 ad3e
00000010: 8520 ba3e 90cb b33e 536e 8e3d 7e6d 99be
00000020: 80cd 16c0 150c f73a 92ea 853e fa8e 363f
00000030: 2127 533e 93a4 7c3e 2996 b6c0 2540 8fbe
00000040: 33ca 083f bce6 4c3d 56ed 7c3e 5156 8b3e
00000050: c465 15bc 8115 533e 8fce 9b3d 99b3 9ebd
00000060: 8bd8 963e 803b 883a 39cd 1c3e 00ab 03be
00000070: 8595 ec3d 82fa 4a3e e759 eabe aa4b 123f
00000080: 542c 81be 426a 79bc c36d 96bc 0842 d13d
00000090: 0f19 d5bc efd0 ee3e 02c6 dcbe 1f8d b73c
000000a0: 01cf d73b 6715 863d 98dc f83d 3d12 6dbf
000000b0: 4608 4d3e ac80 c93c 7726 5f3f 4b86 593e
000000c0: 3ccd 343f 4316 0b3e ea45 343e 9c5c 97be
000000d0: 7b71 7b3e d759 7a3e 8579 9b3e ca44 b13d
000000e0: 805c 373d 61eb 70be 477b d5be c6ae b8bd
000000f0: b46b 4d3e 8534 993e 44a6 3e3e ee38 90bc
00000100: 9f3d f33d 511c 933c e28b d33d 4232 ca3c
00000110: bb37 033e f7fb b0ba e3fd ccbd 9295 0fbd
00000120: fb38 a03d f991 4c3d e77b 62bf 31c1 a23d
00000130: 3f00 813d 707b 85bd b07e 24be 0ca0 aabe
00000140: 1e94 92bd 96c3 a13e 6805 173c 75b5 03bd
00000150: b308 c6be e232 243d de5f b2bc 5192 213e
00000160: 2869 4bbd 6928 a73d fdd0 d63c f66a 113c
00000170: eb72 04bd be90 c83d 2579 ac3d 2e75 363e
00000180: 620e b43e 2c65 7cbe f0b6 4d3e 5a9d d6bb
00000190: 4bbe db3e e47d 7bbe 791a 153e c126 983d
000001a0: 2f16 f53d 471f b53c c59d 003e 7cd2 6e3e
000001b0: 7419 763c af81 b33d 5fa2 fe3d ac0b 353d
000001c0: 0275 fa3d e5f8 913e 9c9c e2bc b1aa 143f
000001d0: 42cd bc3d e358 e13d 86a6 053f cbf3 4dbf
000001e0: 97c8 af3c c85b 0dbe 38f5 a53e e930 663f
000001f0: 81be 9fbd 160d 203e 8437 903e be05 283e
00000200: 2dbd 65bd 4817 c5bd dba3 ffbb 5349 f1bd
00000210: 1f3a dbbd 0c6d 8bbd d94f 0bbc c8f5 e5bc
00000220: af5e 42bd f7b1 1cbd abb3 9bbc 7728 0abe
00000230: 6763 efbc b3c2 c9bd 33af 813d c3f6 ad3d
00000240: 6983 653c 033b 753c 7b28 ebbd 77b5 c6bd
00000250: 0019 84bb b7d2 97bd e7cd 803d 3cce 91bc
00000260: 1f96 00be 62f9 293d 7f70 693c 30a0 d23b
00000270: f1f0 e6bd 9482 0abb 68cf 97bc ad4d 9b3b
00000280: cffa 29bd 8a36 56bd b255 363c 31fd 3cbc
00000290: cf23 a3bd c0b2 dbbd dc82 933c a212 56bd
000002a0: b586 c8bd bddc f4bd 7be4 803a 8080 18bc
000002b0: 661c eabd 4c83 0c3d aeee 7abd 19f8 0fbe
000002c0: e99f f9bd dcac 9ebd be77 703c ae87 0e3d
000002d0: d597 29bd 8b91 17be 1115 fdbd ed2c c9bd
000002e0: 4a12 f4bc 9e92 b3bd 49cb 08bd baf5 8bbc
000002f0: d251 67bd 246e 92bc a3f5 4dbd 6cbe b0bd
00000300: 5973 52bd 4a55 b9bd b0c5 c0bd 708d b5bd
00000310: 1427 df3c 2dfd bdbd a66f e63c 1f0c 98bd
00000320: e0cc 85bd 28a5 acbc 6601 763d 2d3d 9abd
00000330: ad6e 853d 74ea 93bd 9b2a f2bd 552f 32bd
00000340: 3746 893d a2ec c4bc 80ad db3c d6b4 2e3d
00000350: c3b8 4cbd 83fd 15bd bd43 1dbd cbd7 f73b
00000360: 3f94 f9bc 9217 743d 9127 00bd 1e86 e6bc
00000370: 3218 343d 48da 3b3c 12ff 4eba 531f f1bd
00000380: 5071 c13c 7ffb e0bc 265e 1abd 886c 6bbb
00000390: 99a8 7cbd 9aba 80bd 7a10 29bd 02b1 b0bd
000003a0: b148 11be 9806 a73c 8567 45bd eb79 b5bd
000003b0: 7824 16be 8aa0 c7bd 705c 413c 3072 eebb
000003c0: 3b0b afbd 2f43 cbbd 409d f03b b9e3 aa3d
000003d0: 0abd c9bc 1557 55bd a474 c4bc fa99 06be
000003e0: e490 41bc c77a 85bd 6515 9ebd 3633 dc3c
000003f0: 38e8 ec3c e112 9ebd 8441 ffbd 0a3a 90bd

ff_layers.1.bias f4 [128]
0.64751583 -0.024721261 0.82325584 0.34999588 0.43081748 0.036658388 -0.18455543 0.7281881
-0.118428156 -0.03934915 -0.041935727 0.732865 -0.10379594 0.7707964 -0.1225281 0.4691068
0.05806317 0.59543806 0.85462105 0.9908671 -0.0868487 -0.11589211 0.5373584 0.1232471
0.9744742 0.80187315 0.3239453 0.3396442 -0.120979786 0.41808292 -0.018851556 -0.027726896
-0.081334904 0.051424418 -0.040599067 0.43581873 0.13013883 -0.011535262 0.6980191 0.21525618
0.6775029 0.20783311 -0.12148467 -0.031392615 0.58416605 0.026807511 0.46188474 0.1515758
0.30175695 0.49784666 0.014891933 0.173641 -0.0012150714 -0.65254855 -0.2542492 0.01837883
-0.10879685 0.24518509 0.6144844 -0.109654255 -0.29329285 0.2373554 0.27053443 -0.13734306
0.44022977 -0.23108307 0.146574 -0.28456864 -0.05067246 0.78449935 0.051818773 -0.077986896
0.3891277 0.5856559 0.40046793 0.56392366 0.05847832 0.12094616 -0.3774971 0.6850375
0.2855428 -0.27527902 0.12118813 -0.12409128 -0.04142261 0.085898325 0.2111537 0.14879185
0.3173511 0.77337426 0.16223043 0.4414452 0.59464025 -0.0066578337 -0.08545323 -0.05967774
0.21410276 0.4444187 0.36262864 -0.07424815 -0.11869645 0.09271704 0.33205897 -0.08013182
0.09587 0.328893 0.07784118 0.48606294 -0.10484758 -0.072278455 -0.010883851 0.70285493
-0.14453591 0.014302509 0.62493336 0.28826308 0.057023518 -0.07912143 -0.010306496 -0.08810622
0.020756556 0.26530555 0.42916083 -0.073170796 -0.089695476 0.30469385 -0.07697758 -0.06460696
00000000: 99c3 253f 3e84 cabc e5c0 523f a932 b33e
00000010: 1c94 dc3e 1b27 163d 19fc 3cbe 896a 3a3f
00000020: 768a f2bd 932c 21bd ccc4 2bbd 0a9d 3b3f
00000030: f792 d4bd ea52 453f 03f0 fabd c42e f03e
00000040: a6d3 6d3d a16e 183f 72c8 5a3f 77a9 7d3f
00000050: bbdd b1bd d858 edbd 5290 093f fa68 fc3d
00000060: 2477 793f 8f47 4d3f 29dc a53e d8e5 ad3e
00000070: 40c4 f7bd f70e d63e 946e 9abc 8423 e3bc
00000080: ea92 a6bd 69a2 523d 354b 26bd a223 df3e
00000090: 1d43 053e 65fe 3cbc 61b1 323f 1e6c 5c3e
000000a0: d470 2d3f 34d2 543e f4cc f8bd 8b95 00bd
000000b0: e88b 153f 6d9b db3c 287c ec3e b036 1b3e
000000c0: e37f 9a3e c2e5 fe3e 4bfd 733c f2ce 313e
000000d0: 0843 9fba 6c0d 27bf f32c 82be 338f 963c
000000e0: e2d0 debd cd11 7b3e da4e 1d3f 6992 e0bd
000000f0: 7b2a 96be 4b0d 733e 7d83 8a3e a9a3 0cbe
00000100: cc65 e13e 0aa1 6cbe 7f17 163e fbb2 91be
00000110: ed8d 4fbd f3d4 483f ec3f 543d 98b7 9fbd
00000120: bf3b c73e 8ced 153f 220a cd3e 4d5d 103f
00000130: f686 6f3d 9fb2 f73d 4d47 c1be 9e5e 2f3f
00000140: aa32 923e 5ff1 8cbe 7b31 f83d 9223 febd
00000150: c1aa 29bd 76eb af3d ad38 583e e45c 183e
00000160: d87b a23e dbfb 453f bc1f 263e 1b05 e23e
00000170: 583a 183f f529 dabb 1a02 afbd a570 74bd
00000180: c13d 5b3e d98a e33e 76aa b93e 6a0f 98bd
00000190: 2017 f3bd 6ee2 bd3d a203 aa3e 271c a4bd
000001a0: 7e57 c43d aa64 a83e 326b 9f3d 3edd f83e
000001b0: 54ba d6bd ba06 94bd 2e52 32bc 4dee 333f
000001c0: 3901 14be 1255 6a3c a2fb 1f3f 3897 933e
000001d0: 7e91 693d 6b0a a2bd 94dc 28bc 0971 b4bd
000001e0: a709 aa3c 21d6 873e f8ba db3e 92da 95bd
000001f0: 43b2 b7bd d500 9c3e 6ca6 9dbd a750 84bd

ff_layers.2.weight f4 [2, 128]
0.42562395 -0.002001481 0.41493505 -0.4432168 -0.37629104 -0.11328324 -0.057406623 0.5787433
-0.014227958 0.01873065 -0.08635892 0.50683796 0.13827623 0.57020473 -0.054502685 -0.6600145
0.08789151 0.41775045 -0.79840267 -0.7447161 -0.03919381 0.035536665 0.77801335 -0.62186277
-0.72808236 -0.58735716 1.666759 -0.44060454 0.17234048 0.87703514 -0.07852545 0.09048912
0.10446656 -0.33442295 0.037084945 0.8642904 -0.57587546 0.0058801207 -0.6841057 -0.4578239
0.84841675 1.3176595 -0.0018712815 -0.14381011 1.0103542 1.3787539 -0.78939795 0.09929922
-0.38043067 0.48849335 0.7875319 -2.0205867 0.103915274 2.2100117 2.0982757 -0.069862515
-0.01626774 0.33601806 0.57723945 -0.05395051 -2.0725484 -2.2912362 -0.65157425 -0.0027699366
-0.5466442 -1.68054 1.090882 -1.0254052 0.045976143 -0.61265486 1.1991757 -0.0060257614
0.66966707 0.60353756 0.77998704 0.33283865 -0.012883224 3.7193387 -1.8357686 0.4239061
-0.5985083 -1.9116225 1.4578824 0.0062100366 -0.0034713454 -1.1099015 1.6780287 -1.2431797
-0.3406476 -0.7087274 -0.42676312 -0.52670866 0.58833784 0.0012311332 -0.016052417 -0.8661389
-0.6729887 -0.5369028 -0.44400698 0.079516135 -0.1428741 -0.9727054 -0.75129706 -0.025018737
1.2159531 -0.6076551 -1.0158312 0.45050254 0.090503424 0.039153732 0.035795245 0.462609
0.059660137 -0.0011478103 -0.6540081 -0.46651736 0.9201232 -0.007788812 0.065296315 -0.06957188
-0.56253666 -0.45645902 -0.48894572 0.063377246 0.017579772 0.7873051 0.022400238 0.04868556
0.45953757 0.023797287 0.5569317 -0.5309387 -0.6092685 0.014129174 -0.056956846 0.4378414
0.03198337 -0.026784377 -0.00449488 0.7478941 0.04192662 0.57945144 -0.052367344 -0.36206022
0.0761581 0.61047506 -0.44900808 -0.61086345 0.18222313 0.052285194 0.4482552 0.28805724
-0.5806157 -0.38237956 1.1874881 -0.6391241 0.24475628 0.8703882 0.041577972 0.016462404
-0.017347451 -0.9484856 0.0035797283 0.8837305 -0.66590935 -0.020254439 -0.5176185 -0.7078773
0.7549185 1.2291985 -0.06877639 -0.03768604 0.6917659 1.1091733 -0.7552613 -1.3581975
-0.7100741 0.5037567 0.62565625 -1.2294613 -0.005194426 2.9430532 1.6067767 0.012296222
0.06696486 0.49135596 0.42488766 0.003170122 -2.0142157 -0.9638862 -0.5255965 -0.05133263
-0.53929764 -2.1162877 0.91898805 -1.7697512 0.037195772 -0.42876914 1.1614062 -0.043412823
0.94235224 0.4331885 0.9088153 0.6813845 -0.049572397 1.2068666 -1.4229172 0.8044338
-1.1251693 -1.8797189 1.1318443 -0.007344679 -0.0057280185 -2.1702719 1.05089 -1.654257
-0.7815501 -0.604928 -0.9682441 -0.84799176 0.5804053 0.025699103 0.032195494 -0.757336
-0.92977834 -0.69141144 -0.48019403 0.03595504 0.0098237945 0.5365539 -0.6603623 0.0784759
1.316687 -0.41926137 -2.0758545 0.8541105 -0.0077418834 -0.0484961 0.082287796 0.748688
-0.029975738 -0.030899974 -0.6276194 -0.890063 0.31445724 -0.08294324 0.050036285 -0.00071602315
0.68514144 -0.71554035 -0.7278505 0.040864095 -0.03768178 0.8106169 -0.070670426 0.031034097
00000000: 62eb d93e 472b 03bb 5e72 d43e 50ed e2be
00000010: 38a9 c0be 0b01 e8bd 3523 6bbd 8528 143f
00000020: 621c 69bc 0571 993c f2dc b0bd 22c0 013f
00000030: 4998 0d3e f0f8 113f 353e 5fbd b6f6 28bf
00000040: 7700 b43d 63e3 d53e 1e64 4cbf b7a5 3ebf
00000050: b089 20bd e58e 113d e22b 473f 6632 1fbf
00000060: 9b63 3abf 0a5d 16bf 5c58 d53f eb96 e1be
00000070: 067a 303e 6085 603f f3d1 a0bd 5c52 b93d
00000080: 90f2 d53d 7c39 abbe 62e6 173d 2342 5d3f
00000090: 936c 13bf 07ae c03b 8d21 2fbf e567 eabe
000000a0: d731 593f 11a9 a83f ca45 f5ba f542 13be
000000b0: 4953 813f 027b b03f fc15 4abf 645d cb3d
000000c0: cfc7 c2be cd1b fa3e b19b 493f 4b51 01c0
000000d0: 88d1 d43d d570 0d40 264a 0640 1414 8fbd
000000e0: ec43 85bc 8f0a ac3e f7c5 133f 36fb 5cbd
000000f0: a2a4 04c0 9da3 12c0 92cd 26bf d387 35bb
00000100: e0f0 0bbf ef1b d7bf 05a2 8b3f 7a40 83bf
00000110: 7b51 3c3d f3d6 1cbf 977e 993f c073 c5bb
00000120: 4d6f 2b3f 7081 1a3f 3bad 473f d469 aa3e
00000130: 2814 53bc a509 6e40 77fa eabf 380a d93e
00000140: d737 19bf 0cb0 f4bf e49b ba3f 907d cb3b
00000150: 837f 63bb 4111 8ebf a5c9 d63f 8320 9fbf
00000160: 5d69 aebe 296f 35bf b280 dabe 61d6 06bf
00000170: 4f9d 163f fa5d a13a 5c80 83bc 47bb 5dbf
00000180: fd48 2cbf 7672 09bf e254 e3be 5bd9 a23d
00000190: 974d 12be 3903 79bf 0155 40bf 18f4 ccbc
000001a0: 5aa4 9b3f 498f 1bbf c206 82bf 45a8 e63e
000001b0: dc59 b93d aa5f 203d 099e 123d 16db ec3e
000001c0: 305e 743d 1f72 96ba 136d 27bf 5ddb eebe
000001d0: 328d 6b3f 4a39 ffbb 13ba 853d b47b 8ebd
000001e0: 6702 10bf ffb4 e9be 1857 fabe eecb 813d
000001f0: 7403 903c d48c 493f b480 b73c 826a 473d
00000200: 8248 eb3e 87f2 c23c 1393 0e3f 99eb 07bf
00000210: 05f9 1bbf 0d7e 673c 954b 69bd bf2c e03e
00000220: ff00 033d e96a dbbc c949 93bb fd75 3f3f
00000230: 3fbb 2b3d ee56 143f 247f 56bd f55f b9be
00000240: c7f8 9b3d 1848 1c3f 63e4 e5be 8c61 1cbf
00000250: b398 3a3e 0029 563d b581 e53e 3d7c 933e
00000260: 3ba3 14bf 41c7 c3be 9cff 973f a39d 23bf
00000270: 64a1 7a3e c3d1 5e3f aa4d 2a3d 2adc 863c
00000280: 3e1c 8ebc f4cf 72bf e099 6a3b 293c 623f
00000290: 0979 2abf a3ec a5bc a582 04bf 7237 35bf
000002a0: 5742 413f 6056 9d3f a3da 8cbd ad5c 1abd
000002b0: 9217 313f 64f9 8d3f ce58 41bf 6ad9 adbf
000002c0: 6bc7 35bf 33f6 003f 022b 203f fd5e 9dbf
000002d0: 0136 aabb fc5a 3c40 dcaa cd3f 1876 493c
000002e0: df24 893d 0293 fb3e e08a d93e d2c1 4f3b
000002f0: e9e8 00c0 3fc1 76bf 7e8d 06bf 2a42 52bd
00000300: 690f 0abf 4271 07c0 cd42 6b3f 3587 e2bf
00000310: 985a 183d a187 dbbe f5a8 943f a5d1 31bd
00000320: ff3d 713f e2ca dd3e 1fa8 683f 376f 2e3f
00000330: 6d0c 4bbd 9b7a 9a3f 2722 b6bf 60ef 4d3f
00000340: 8c05 90bf a19a f0bf 46e0 903f a2ab f0bb
00000350: 1ab2 bbbb bce5 0ac0 9083 863f b2be d3bf
00000360: ab13 48bf 90dc 1abf d8de 77bf fd15 59bf
00000370: 7195 143f ed86 d23c 6cdf 033d c6e0 41bf
00000380: f405 6ebf 5700 31bf fedb f5be 9845 133d
00000390: fbf3 203c 995b 093f 810d 29bf f9b7 a03d
000003a0: 3389 a83f 6da9 d6be cdda 04c0 fca6 5a3f
000003b0: a0af fdbb d9a3 46bd 8186 a83d 04aa 3f3f
000003c0: ae8f f5bc f121 fdbc aaab 20bf 2bdb 63bf
000003d0: 8a00 a13e 25de a9bd d9f2 4c3d 80b3 3bba
000003e0: 6e65 2f3f a72d 37bf 6954 3abf 1c61 273d
000003f0: 3658 1abd 9784 4f3f a8bb 90bd 383b fe3c

ff_layers.2.bias f4 [2]
0.029867802 -0.036736112
00000000: 52ad f43c 9b78 16bd
