pytorch/coco-250strats.pt (torch_old, 75401 bytes, 6 tensors)

ff_layers.0.weight f4 [128, 13]
000000 f8 b5 cc bd 01 ab 0f bf 9a fb d3 3e 21 dc ba be
       -0.09995645 -0.56120306 0.41402894 -0.3649607
000010 92 00 b9 3e b6 59 1b 3f 27 b4 d6 3e 2e b8 bf 3e
       0.36133248 0.60683763 0.4193432 0.37445205
000020 1e bf ac 3d 98 9f be be b8 2c 52 3e cc b2 36 be
       0.0843489 -0.37231135 0.20524871 -0.17841643
000030 4b e2 37 3e c2 1b 13 bf 1c 82 27 3d 37 3c ff be
       0.17957418 -0.5746423 0.040895566 -0.49850628
000040 8c 8b d7 bd 61 7b 2c 3d 8c db 4d 3d 0e 57 04 3e
       -0.10524663 0.04210985 0.050258204 0.12923834
000050 56 47 a5 be f6 09 06 be 51 d3 b8 3f d9 3f ad bd
       -0.32280988 -0.13089737 1.4439489 -0.084594436
000060 c6 e9 91 3e 1d 4f b5 3e 48 35 57 bd 74 e2 00 be
       0.28498667 0.3541192 -0.052541047 -0.12586385
000070 a4 23 91 3d d0 0d 2d 3e 1a ac b3 bd 9c 00 cc 3d
       0.07086876 0.168998 -0.0877306 0.09961054
000080 a7 27 1b be 9c 97 34 3e 82 3c 8c be 30 2c 00 bd
       -0.15151845 0.1763596 -0.27389914 -0.03129214
000090 72 08 90 bd 68 a8 36 3e 78 b6 33 3e 4e d1 08 be
       -0.07032861 0.1783768 0.17550075 -0.13361093
0000a0 7c 1b ee be ef 87 09 3e 00 cd 86 be 41 ab 26 bd
       -0.46505344 0.13430761 -0.26328278 -0.040690664
0000b0 b0 9d 6b be 73 00 0b be ff 6f 18 3d 90 d1 83 3e
       -0.23009372 -0.1357439 0.037216183 0.2574582
0000c0 98 00 7f 3c 9a a8 5b 3e e5 bf bd bc 68 48 a4 3d
       0.015564106 0.21451035 -0.023162792 0.08021623
0000d0 5e 7d 46 be fc 6b 48 bf b3 1a da 3e b1 9d ee be
       -0.19383761 -0.7828977 0.42598495 -0.46604684
0000e0 82 9f fb 3e 85 9c 19 3f c4 95 94 3e 60 76 f8 3e
       0.49145132 0.60004455 0.29020512 0.48527813
0000f0 ff 4d e0 3b cc d0 c4 be 4c 7c a4 3e 17 0c 83 bd
       0.0068452354 -0.3844055 0.3212608 -0.0639879
000100 37 e0 26 be 81 cf 3e be e0 f6 66 be 68 74 6d 3e
       -0.16296469 -0.18633844 -0.22555113 0.23188937
000110 99 d0 8c be 39 ab 86 3e e8 2e dd 3e df 18 94 3e
       -0.27502897 0.26302508 0.4319985 0.28925225
000120 61 1f 52 3e e9 0c 8e 3e c5 6a cc be 52 ca 56 3e
       0.20519783 0.27744225 -0.3992521 0.20975617
000130 98 81 11 3e cb 5a 97 3d 76 5d 5e be fe 22 5f 3e
       0.14209592 0.07390364 -0.2171534 0.21790692
000140 be 49 16 be c7 51 b2 3e d8 8a d1 3e 14 2f f6 3e
       -0.14676568 0.34828016 0.40926242 0.48082793
000150 23 18 b5 3e 98 07 ae 3e 68 89 97 3e eb e1 7c be
       0.35369977 0.3399017 0.2959702 -0.24695556
000160 60 6f 6b be d5 1b 01 be 13 58 69 3d ba ea ef 3d
       -0.22991705 -0.12608273 0.05696876 0.117146924
000170 d7 d4 9d bd 1d c3 9b be a8 00 28 3e 73 98 da be
       -0.077066116 -0.30422297 0.164065 -0.42694435
000180 c2 53 f6 be 4b c7 50 bf 8c c2 43 bf d4 ea 9f 3c
       -0.48110777 -0.81554097 -0.7646873 0.019521154
000190 be 88 3a 3e 1c 9b da 3e f4 40 04 3f 05 d9 e2 3e
       0.18216226 0.42696464 0.5166161 0.44306198
0001a0 eb b1 6c 3d 9e 13 3b 3f b6 a8 c9 bd a9 6e 19 3f
       0.057786863 0.7307681 -0.09846632 0.5993448
0001b0 c6 56 93 be 23 55 90 be ca 31 b9 be d1 b2 44 3d
       -0.2877714 -0.28189954 -0.361708 0.048022095
0001c0 5c a3 85 be 87 5b 37 3e d2 d9 01 bf 79 f8 ac be
       -0.26101196 0.17906009 -0.5072299 -0.3378332
0001d0 78 bd 5f bd d9 14 56 3e 22 4e a7 3f 90 ad cb be
       -0.05462405 0.2090639 1.3070719 -0.39780855
0001e0 8b c0 31 3f df b8 89 3d da 48 84 be fc b9 40 be
       0.6943442 0.067247145 -0.2583683 -0.18820947
0001f0 9d 11 d7 bd b9 59 01 3d b0 79 ba 3e d9 77 dc be
       -0.10501406 0.031579707 0.36420965 -0.43060187
000200 7c 88 7b be 6a de 3a 3d 5e 5e e5 3d 52 61 49 be
       -0.24563783 0.045622267 0.1119964 -0.19666031
000210 01 bb fe 3c 14 aa 98 3d 76 60 92 be d0 29 86 be
       0.03109503 0.07454315 -0.2858922 -0.26203775
000220 70 ba 57 be 89 8a a4 be bb e2 7e bd 6c 30 8e 3e
       -0.21067214 -0.32136944 -0.062227946 0.27771318
000230 03 e1 92 bd 27 11 0b 3e df c5 c0 3e 54 41 6a be
       -0.07171824 0.13580762 0.37650964 -0.22876483
000240 80 44 40 be 0d 4d 98 bd 5c ef 5e 3c 90 6e d6 3e
       -0.1877613 -0.07436571 0.013606872 0.41881227
000250 3c dc eb 3e bb 60 c9 3e a3 f7 f0 3e 61 56 1e 3e
       0.46066463 0.39331612 0.47063932 0.15462638
000260 6b d4 71 be 55 c3 71 3e 26 ab ac bd ee a1 61 be
       -0.23616187 0.2360967 -0.084310815 -0.22034428
000270 16 72 05 be a0 fa 25 3e 54 76 c3 bd 90 41 95 3c
       -0.13031802 0.16208887 -0.09544054 0.01821974
000280 25 28 2c be 30 28 78 bd 6c b6 b6 3d 44 2d 64 be
       -0.16812189 -0.0605852 0.08921513 -0.22282892
000290 a1 1f 8a be 68 bf 2a 3d b4 77 75 bd f0 26 85 3c
       -0.26977256 0.041686445 -0.05992861 0.016253918
0002a0 88 4d e4 3d dc 75 a5 bd 88 03 a7 bd 2c 40 16 3e
       0.111476004 -0.080791205 -0.081549704 0.14672917
0002b0 f0 9f 56 3e 38 ee 81 be c4 9e 20 be 1e 67 5f 3e
       0.20959449 -0.2537706 -0.15685564 0.2181668
0002c0 ec a7 e6 bd 93 2b 85 be 04 65 d7 3d 90 38 b4 bc
       -0.11262497 -0.26009807 0.10517314 -0.021999627
0002d0 f2 8f 23 be 62 c3 61 3e d8 2b 89 be 32 32 64 3e
       -0.1597288 0.22047189 -0.26791263 0.22284773
0002e0 ac 51 ee bd 80 95 65 bb d6 44 0e 3e ac 4f c8 3d
       -0.116366714 -0.0035031736 0.13893446 0.09780821
0002f0 4c da 82 be 1f ba 0f be b4 62 f6 bd 7c 1b 40 3e
       -0.25557172 -0.14035843 -0.12030545 0.18760484
000300 a3 fc 8d 3e c2 a2 74 3e 44 85 0d 3e 2d a8 a8 3e
       0.2773181 0.23890212 0.13820368 0.32940808
000310 f9 6f 08 3e d7 38 53 be e1 ee 03 3d c1 bc 1c bf
       0.13323964 -0.20627151 0.032210235 -0.61225516
000320 db 9f db be ef 46 93 be fd 3b a5 be 98 20 1e 3e
       -0.42895398 -0.28765056 -0.3227233 0.15442121
000330 38 29 72 3c 75 33 81 be 18 48 a5 b9 67 0e a7 be
       0.014780335 -0.2523457 -0.00031524966 -0.32628176
000340 a3 e6 47 3e 14 8e 30 3f c0 2e 82 be 50 3e 89 3e
       0.19521575 0.68966794 -0.25426292 0.26805353
000350 01 5d 92 bc a2 0c 88 be 7b 46 cd be f0 75 82 be
       -0.017866613 -0.26572138 -0.40092835 -0.25480604
000360 92 44 b4 3d 56 14 05 3d 39 69 d7 be 9d a8 7f bd
       0.08802141 0.032490097 -0.42072466 -0.06241666
000370 f1 db 81 be 79 46 fc 3e 0f c1 3a be 30 bb a6 3e
       -0.25363114 0.49272516 -0.18237709 0.32564688
000380 d3 2e 74 be 23 34 25 be aa 2d 9c be 4a 6f fb be
       -0.23845987 -0.1613317 -0.3050359 -0.49108344
000390 e0 c3 f7 be e0 c3 7a 3c 2e 1c a1 bd df 0d b6 3e
       -0.48391628 0.015305489 -0.07866703 0.35557458
0003a0 ff 61 ca 3b a1 6c b2 3d c5 28 61 bd fc 29 99 3c
       0.006176233 0.087121256 -0.05497052 0.018696778
0003b0 b0 0a b2 3d 37 e9 b4 bd f6 ca 77 be 8f ce 08 bd
       0.08693445 -0.08833545 -0.24198517 -0.033400115
0003c0 ac f2 bc bc 67 df ac be a2 d9 aa be 67 d1 30 3e
       -0.023064934 -0.33764192 -0.33369166 0.1726738
0003d0 21 f4 f1 3d 7c 03 31 be 74 02 f2 3c a9 78 fa be
       0.11814142 -0.17286485 0.029542185 -0.4892018
0003e0 2d 87 af 3e 66 a2 0c be 6e d4 80 bd 01 60 21 bf
       0.34282818 -0.13733825 -0.06290518 -0.63037115
0003f0 ef 06 96 be cf 48 54 bf ed 3f 4a bf ce e2 6a 3b
       -0.29302165 -0.829236 -0.79003793 0.0035840753

ff_layers.0.bias f4 [128]
000000 d9 55 c7 3d 8b d8 76 3d 49 75 18 be 0b 54 c8 3e
       0.09733171 0.060265105 -0.1488849 0.3912662
000010 b7 b4 4f 3e ba 3a 2f be db 65 94 3d 40 40 5f be
       0.20283781 -0.17112246 0.0724599 -0.21801853
000020 c1 5e 4f bc cf 8f 34 3e e1 22 ae be bb 96 81 be
       -0.012656868 0.17632984 -0.34010985 -0.2531031
000030 4e 85 49 be 00 ca d1 bd 7c a1 33 be 2b 64 2c be
       -0.19679758 -0.102436066 -0.1754207 -0.16835086
000040 a9 1b a1 be 4b fc a2 bc d0 3a b2 bd d8 dc 21 be
       -0.31466416 -0.019895693 -0.08702624 -0.15806901
000050 45 ea df 3e 1d f1 2a 3d bd 79 c8 3d 8c 4e d1 3d
       0.4373342 0.04173385 0.09788845 0.1022006
000060 b7 df b9 3d 48 c0 83 bd 7c bb ba 3d 5c 11 fb ba
       0.09075873 -0.06433159 0.09117791 -0.0019154954
000070 af 89 80 be b3 1d 06 3e 7e d3 85 bd 4b 00 4a 3e
       -0.25105044 0.13097267 -0.065344796 0.19726674
000080 6b 12 94 bd 2b cf 1b 3d 2d 33 b7 3e 8c fd 6d 3e
       -0.072300754 0.038039368 0.35781232 0.23241252
000090 8f 62 8b be 86 41 c5 bd 9f 17 83 3e 74 27 84 3d
       -0.27223632 -0.09631638 0.2560396 0.064528376
0000a0 ee a3 d0 3e 37 2a 2c be 46 62 fd bd 77 83 d6 3e
       0.40750068 -0.16812979 -0.1237226 0.41897175
0000b0 36 e6 7c 3e 9b 76 4a 3c f5 cd 8b be ac 4e cc 3d
       0.24697194 0.012357379 -0.2730557 0.09975943
0000c0 06 57 07 be 9b 38 c1 bd 2e 57 07 be e4 29 7e be
       -0.1321679 -0.09434625 -0.1321685 -0.24820668
0000d0 4b 88 c0 3e d7 e3 b2 3e e0 9c 98 be 16 0f 21 3e
       0.37603983 0.34939453 -0.29807186 0.15728411
0000e0 d5 32 b2 be e7 c7 1a be 40 52 c6 3c 7e 77 27 3e
       -0.34804407 -0.15115319 0.024209142 0.16354176
0000f0 2f c3 de bd e2 99 e5 3d fe 9c 07 3d ae 91 79 be
       -0.10877072 0.112109914 0.033108704 -0.24371979
000100 87 22 4e bc eb ef f0 3e 26 f9 31 3e b0 fd ce bd
       -0.012581474 0.47058043 0.17380199 -0.10106981
000110 f9 01 89 bd ae 82 9c 3e 26 e5 78 be de e1 2e 3e
       -0.066898294 0.3056845 -0.24306163 0.17078349
000120 f3 2a b6 bd 20 82 7e 3c 86 e0 c3 bd 39 8c 0f be
       -0.08894911 0.015533954 -0.09564309 -0.14018334
000130 c2 1a 45 3e 93 ed 09 be 6a 8c 0c 3f f5 c3 77 3e
       0.19248489 -0.13469534 0.54901755 0.24195845
000140 93 5f 14 be dd ac 4f 3e 50 71 65 be 17 3c e9 3e
       -0.14489584 0.20280786 -0.22406507 0.45553657
000150 02 c9 98 3e 10 ca bb 3d 68 9f ad 3e 6e e8 ad be
       0.29840857 0.091694 0.3391068 -0.33966392
000160 ee 98 32 3e 4c 3e c0 3e be bd a8 be 0f 8f 80 3d
       0.1744115 0.3754753 -0.32957262 0.06277286
000170 24 bf fd 3d 0c 48 57 3d f6 77 75 be 14 4f 29 be
       0.12389973 0.052558944 -0.23971543 -0.16534072
000180 90 12 11 3e d8 51 86 be 91 a2 4b bd 7c 56 e8 be
       0.14167237 -0.26234317 -0.049715582 -0.45378482
000190 38 f6 af 3e 4a c9 c1 3e d2 47 74 3e 7a 90 e4 3d
       0.34367537 0.37848884 0.23855522 0.11160369
0001a0 ac 55 57 3d 8b 3d d1 3e d8 17 2c bf 07 1b d4 bd
       0.052571937 0.40867266 -0.6722388 -0.103567176
0001b0 8a 7a d8 bd cd c2 18 be b8 49 f3 bd 1f 4b 02 be
       -0.105702475 -0.1491806 -0.11879295 -0.12723969
0001c0 eb ba 8c bd 95 46 be 3e ae 8d ff bd 1f 80 ac bd
       -0.06871589 0.37163225 -0.12478195 -0.08422875
0001d0 ce 36 9c bd 00 0e 73 3a b5 8e 4e 3e a5 ca 38 be
       -0.07627641 0.00092718005 0.20171626 -0.18046053
0001e0 9b 3c 70 bd be 45 a6 3d d6 ec bc bd 72 f3 ea bd
       -0.058651548 0.08118771 -0.0922486 -0.11472215
0001f0 6e 3c 95 3c d7 5b 00 3e 88 09 46 be 5f ed b6 3d
       0.018217292 0.12535034 -0.19339573 0.08931994

ff_layers.1.weight f4 [128, 128]
000000 d2 67 6e bd fb 35 82 bf b0 83 bf 3c 18 bb 89 3e
       -0.05820448 -1.0172724 0.023378223 0.26900554
000010 89 88 17 bd 00 c9 91 3c b4 e5 90 3e fc e5 36 be
       -0.036995444 0.01779604 0.2830025 -0.1786117
000020 67 a1 ef bc 22 11 99 bd a2 01 b9 bd 81 20 b3 3c
       -0.029251767 -0.07473971 -0.090335146 0.021866085
000030 8a 0e a4 bd 71 f6 36 bd 99 5b 92 3d bb 5b 12 3e
       -0.080105856 -0.04466862 0.07146377 0.14292805
000040 bf 4c 9b bd e2 1d b8 bc 4c 61 21 3d 50 3c 25 be
       -0.075829975 -0.022475187 0.03939943 -0.16136289
000050 f3 f3 61 3e d1 3e 29 3d b3 80 d2 3d 8f 18 4a be
       0.22065715 0.041319672 0.10278454 -0.19735931
000060 fd 2e de 3d 9c 29 fc bd 9a 52 5e be a7 f5 a3 bf
       0.10848806 -0.12312624 -0.21711197 -1.2809342
000070 78 70 8c bd a9 15 10 c0 25 e8 bd be 6a a7 b6 bd
       -0.06857389 -2.251322 -0.37091175 -0.089186504
000080 cc 13 c3 bd 4d f0 4c 3f 6d 10 d4 3d a2 c6 00 3e
       -0.0952526 0.8005417 0.103546955 0.12575772
000090 27 1d 65 bf 88 66 87 3e 43 e2 e3 3d c5 24 91 bd
       -0.8949761 0.26445413 0.111271404 -0.07087091
0000a0 5e ec 05 3e 54 9a c4 bd c2 26 07 3e 34 10 33 3d
       0.13078448 -0.09599748 0.13198379 0.043716624
0000b0 4d 54 00 3f 5c 02 0c 3e 04 02 6b 3d 70 14 9d 3b
       0.5012863 0.13672775 0.05737497 0.004793696
0000c0 45 65 81 3d 20 24 15 3e 28 03 c2 bc 72 de b5 3d
       0.06318144 0.14564562 -0.023683146 0.08880319
0000d0 49 20 30 be 35 25 21 3e d1 58 6e 3f 9f 13 01 bf
       -0.17199816 0.1573685 0.93104273 -0.50420564
0000e0 00 3a 2c 3f 18 3a ad 3e d1 2b 44 bd a4 3c c4 bc
       0.67276 0.33833385 -0.04789335 -0.023954697
0000f0 2d d1 6d bf d4 4d a9 3d e8 66 c0 bb 1b c5 dd 3e
       -0.928973 0.08266798 -0.0058716424 0.43314442
000100 50 60 01 be d3 3e 94 3e 6e 08 a7 be eb 33 85 3d
       -0.12634397 0.2895418 -0.3262362 0.06504043
000110 33 fa 83 bb 85 0a 64 3d a3 84 1f 3c cf 31 85 3e
       -0.004027629 0.055674095 0.009736213 0.26014563
000120 4d 5b 18 bf 73 85 a0 3d c1 dd db bd ac 42 b6 bd
       -0.59514314 0.078379534 -0.107356556 -0.088994354
000130 19 2b 82 3d 85 a6 55 3e 8b bf a1 3e 74 0f 8b 3d
       0.063558765 0.20864303 0.31591448 0.06790057
000140 51 e9 c4 be 68 39 b7 3e 7e d9 15 3e 9e 23 db 3d
       -0.38459256 0.35785985 0.14633748 0.10700153
000150 b2 58 9b 3e 5f 41 5f 3f 22 43 c1 bb c9 f5 6b bd
       0.30341107 0.87209123 -0.0058978954 -0.057607446
000160 11 ab 40 3e 42 46 78 3c 0a 6a 36 be b4 2b 1f 3e
       0.18815257 0.0151534695 -0.17813888 0.15544015
000170 83 a2 10 3d 64 74 0b bf 8c 3a d8 3d cf cc 58 bd
       0.035311233 -0.54474473 0.10558042 -0.052929696
000180 d4 bc 44 be 3f 0d 51 be 80 26 a2 3e be 77 9f be
       -0.19212657 -0.20415209 0.31669998 -0.31146044
000190 d5 bd 8b 3e 0a bc 55 3e d1 b2 6c bd d6 e4 0f 3e
       0.27293268 0.20872512 -0.05778772 0.14052138
0001a0 dd 87 9c bd 01 7c 02 3e ad 90 ab be 75 64 2f bf
       -0.07643101 0.12742616 -0.33508816 -0.6851266
0001b0 0e 9e a3 bf de aa 23 3e 07 b7 b2 bd 10 98 51 3d
       -1.278261 0.1598315 -0.08726316 0.05117041
0001c0 21 0b 00 3d 2d cc 34 be 23 d7 3f be 6a 44 8a be
       0.031260613 -0.17656012 -0.18734412 -0.2700532
0001d0 b7 3e 9a bf e4 8b 9e bc 64 00 74 bf 79 88 5d bf
       -1.2050389 -0.019353814 -0.95313096 -0.86536366
0001e0 29 55 e5 bd 07 85 80 be 4d 96 82 bd 8b ef 58 bf
       -0.11197884 -0.25101492 -0.06376324 -0.84740514
0001f0 9f 65 18 3e 44 a8 0a 3f b8 69 f6 be 7c e3 db be
       0.14882515 0.54163 -0.48127532 -0.42946994
000200 88 d6 72 3e 8c 84 a8 be 8c 99 a9 bc 02 33 8e 3e
       0.2371465 -0.32913625 -0.0207031 0.2777329
000210 31 da 00 3e 43 00 df 3c b8 46 41 3e 0f b0 69 3e
       0.12583233 0.027221804 0.18874633 0.22821067
000220 d6 f8 88 3c 01 5e 4d 3c 4e a7 bf 3d fb 87 12 3d
       0.016720217 0.012534619 0.09358083 0.035774212
000230 b6 c0 b2 bd 97 cb 85 bd 08 43 b3 bc c9 d7 43 3e
       -0.08728163 -0.06532972 -0.021882549 0.19125284
000240 05 26 89 3d bd 8d aa 3e 2f ff a7 3d e2 51 43 bd
       0.06696705 0.33311263 0.08202969 -0.04768551
000250 d6 34 19 3e 68 db 19 3e 66 1e 07 be 1a 54 5c 3d
       0.14961562 0.15025103 -0.1319519 0.053791143
000260 e6 33 08 be 79 d6 83 3e e9 c2 d1 3b 25 20 ef 3d
       -0.13301048 0.25749567 0.006401409 0.11676053
000270 00 10 7e bc f9 ba 8d bd 8e da 89 3d 0b a5 20 3d
       -0.015506744 -0.06920428 0.06731139 0.039219897
000280 6b 6d 91 3d 43 cc e7 3e 54 0a be 3d 48 0a b0 bd
       0.07100948 0.45273027 0.09279314 -0.08595711
000290 c7 53 5c bf 9d 7e 27 3d 26 29 0b 3d 20 3a b4 3b
       -0.86065334 0.040892232 0.03397479 0.005500093
0002a0 38 26 c7 bc 22 b3 54 bd 20 38 12 3e 4d 1c 34 be
       -0.024310216 -0.051928647 0.14279222 -0.17588921
0002b0 10 72 1a c0 ff 3d d1 3c 8b b9 cc 3e 24 27 f7 3c
       -2.4132118 0.025542257 0.39985308 0.03017003
0002c0 27 b6 bc bd bf 37 ab 3d a6 a4 5f 3d 71 c1 a8 3d
       -0.0921443 0.08360242 0.05460038 0.08240021
0002d0 38 e3 b1 3d 34 dd 80 3c 19 27 67 bd 92 14 ad 3e
       0.08685917 0.015730478 -0.05643377 0.33804756
0002e0 5c e9 22 3d e3 55 06 bf 9c d9 ca 3c 36 f1 a6 bd
       0.03977333 -0.524748 0.024761967 -0.08151476
0002f0 96 63 c8 3e d4 0a a2 3b 52 9e 44 3d 2b 39 1c 3d
       0.39138478 0.0049451385 0.04800255 0.038140457
000300 32 4d 8b bd 43 8d c3 3d 5c 66 e0 bd 8c 62 be 3d
       -0.06801833 0.09548428 -0.109570235 0.0929614
000310 d9 1d 59 bc 8a 1d c4 3d e9 65 df bf a0 d5 42 3d
       -0.013251745 0.09575947 -1.7452976 0.04756701
000320 2f 85 91 bf 3e fa 41 3d 71 bf 4b 3e 90 3a 6b 3e
       -1.136877 0.04735779 0.19897248 0.22971559
000330 2d 0d 0b 3e 84 a8 e6 3d f3 10 91 3e 79 af 6e 3d
       0.13579245 0.112626106 0.28333244 0.058272813
000340 29 af a3 be df 8a 4b 3e e0 bf 98 3e 25 9a 73 be
       -0.31969574 0.19877194 0.2983389 -0.2378927
000350 ed 9d 7f 3d f1 c8 d0 3f b8 db 40 3b d7 b6 76 3d
       0.06240647 1.6311322 0.0029427838 0.060232963
000360 70 4f e5 3d 39 28 0a 3e c5 cb d8 39 a4 be 33 3e
       0.11196792 0.13491906 0.0004135055 0.17553192
000370 54 ff 70 bd b4 04 b5 3e bc fb 1a 3e 7b 3c 7e 3d
       -0.05883725 0.3535515 0.15135092 0.062069397
000380 50 b4 24 3e 52 c7 53 3c 42 14 65 3e 45 ca 49 be
       0.16084409 0.01292594 0.22371009 -0.19706066
000390 dd fd 27 3e 83 e5 cb 3c 04 a3 87 3c 32 1c a8 3e
       0.16405435 0.024889713 0.016557224 0.3283401
0003a0 d3 07 b0 3d 04 12 a2 3d 16 da b9 3e 03 f4 8b be
       0.08595242 0.079135925 0.362992 -0.27334604
0003b0 c7 67 e8 be d5 f7 b6 bd f5 0f 87 3d 60 17 75 bd
       -0.45391676 -0.08933989 0.065948404 -0.059836745
0003c0 b5 a1 ae 3d 0a e9 d9 3c 91 09 ad 3e 09 e1 aa 3e
       0.08526937 0.02660038 0.3379636 0.33374813
0003d0 54 45 a6 be ac 98 9a 3c 02 88 ee 3e 0c ab d8 bd
       -0.32474768 0.018871628 0.4658814 -0.105794996
0003e0 4f c8 d0 bf 24 77 23 3e ec 14 12 bf d3 ec 3c 3d
       -1.6311129 0.15963417 -0.57063174 0.04612429
0003f0 98 f4 ef bd 2a 29 86 3e 3c 5d 4f 3e 51 7c 26 c0
       -0.117165744 0.2620328 0.2025041 -2.6013377

ff_layers.1.bias f4 [128]
000000 54 5a a4 3e a9 7b 54 3e 59 95 43 3e 6e 2f 6e 3e
       0.32100165 0.20750298 0.1909994 0.2326028
000010 d6 3f 4c 3e 0b 1a cb bc fa a8 08 be d0 9c 97 bd
       0.19946226 -0.024792692 -0.1334571 -0.074029565
000020 19 d5 a3 bd ad 8e 7a 3e 85 d5 a8 3e 69 81 39 3e
       -0.079996295 0.24468489 0.32975402 0.18115772
000030 9b b7 14 3c 39 61 bf 3e 2a 33 e7 bd 74 b1 89 3d
       0.009076978 0.37378863 -0.11289056 0.067232996
000040 63 16 07 bd dc 7e b1 3c ef e4 e1 bd 43 39 cb bd
       -0.032980334 0.021666937 -0.11029994 -0.09923031
000050 08 1f 9c bd 4e c6 40 bd d6 73 eb bc 90 63 b2 bc
       -0.07623106 -0.047064118 -0.028741758 -0.02177599
000060 6f b0 3d 3e 4b b4 e8 bd e2 28 9c 3e da bd cd 3d
       0.18524335 -0.11362513 0.3049994 0.10045977
000070 cc 99 85 3e e8 41 c2 bc b9 24 5d 3e 17 73 1b 3e
       0.260939 -0.023713067 0.2159604 0.15180622
000080 f9 57 95 3e 2f e4 37 3e a2 6b 9e bc 99 8e c2 3d
       0.2916868 0.17958139 -0.019338433 0.094998546
000090 22 b4 19 3e 41 3d ae 3e 46 70 3c bd 60 d4 9e 3e
       0.15010121 0.34031108 -0.04600551 0.31021404
0000a0 6a bb 43 ba 10 23 a3 3d 19 aa 24 3e 46 30 15 3f
       -0.00074665865 0.07965672 0.16080512 0.58276784
0000b0 cd 33 e6 bc 69 8e 85 3e 05 d2 6c bd 1b e5 71 3e
       -0.028100872 0.26085213 -0.057817478 0.23622553
0000c0 7f 7e 72 bd 24 de 06 3e 3a a9 01 be a5 fd 6f bd
       -0.059202667 0.13170677 -0.12662211 -0.058591504
0000d0 74 20 b0 3e 66 2d 6e bd 5f ba 1c 3e b8 2f 27 3e
       0.3439976 -0.058148764 0.1530547 0.16326797
0000e0 c2 75 83 3e 1a 44 83 3e 5e 94 e3 bd 78 c8 2f 3e
       0.2567578 0.25637895 -0.11112283 0.17166317
0000f0 38 0f 92 3e 1f 24 2f bd f6 76 4f 3e 2e 54 9c 3e
       0.28527236 -0.042759057 0.20260224 0.30532974
000100 00 85 cb bd 5c 29 74 3d 93 26 0a be d2 49 86 bd
       -0.09937477 0.059609756 -0.13491277 -0.06557049
000110 4b 24 15 3c 27 89 f8 bb a8 47 06 be 68 ab df bc
       0.009102891 -0.007584709 -0.13113272 -0.027303413
000120 38 11 1c 3e 61 d6 85 3e f4 67 a8 be 29 ab 04 be
       0.15240943 0.2614012 -0.3289181 -0.12955917
000130 2c bb 4f 3e 97 81 ae bd f1 18 10 be 19 47 b8 bd
       0.20286244 -0.08520811 -0.14072014 -0.08997936
000140 94 c3 b8 3e d0 30 72 3e 79 81 ec bd 77 56 39 3e
       0.36086714 0.23651433 -0.115481324 0.1809939
000150 28 95 8b 3e 1e 4c aa 3d dc 92 8b 3e 9e d8 bd 3d
       0.27262235 0.083152995 0.27260482 0.09269832
000160 a1 c1 5e 3e 78 3e 9d 3e c4 43 d2 3e eb 86 23 bd
       0.21753551 0.30711722 0.41067326 -0.03992359
000170 fd 4e 0e 3f 33 54 62 3e a1 e1 83 bd 16 06 e9 3d
       0.55589277 0.22102432 -0.0643952 0.11378114
000180 35 05 c7 bc d7 b7 b8 bd ea c1 60 3e 40 31 95 3e
       -0.024294475 -0.0901944 0.21948972 0.29139137
000190 7d 8e 84 3e 63 b5 93 bd 45 15 d2 3e 95 e4 7d 3e
       0.2588996 -0.07212331 0.41031852 0.24794228
0001a0 3d ad f4 bd ce 58 2a be c4 55 65 3e f8 43 b4 3e
       -0.11947105 -0.16635439 0.22395998 0.35208106
0001b0 58 6d 52 3e 44 a8 82 3e 2c c3 c8 bd e8 b9 be bc
       0.20549524 0.25519 -0.09802851 -0.023282006
0001c0 43 f7 11 3e 40 ea cd 3d a2 e9 e4 bc 92 5f 4f 3e
       0.14254479 0.10054445 -0.027943436 0.20251301
0001d0 20 d0 26 3b 10 a1 78 3e 97 e9 d0 3e 9e 81 bc 3e
       0.0025453642 0.2428019 0.40803215 0.3681764
0001e0 66 62 76 3e e6 5d 43 3e d0 2d 76 3b bf 80 a4 bd
       0.24060974 0.19078788 0.0037563927 -0.08032369
0001f0 2b 3f ce 3a 95 88 88 bc da 6a 93 3e d6 9e 90 37
       0.0015735378 -0.01666669 0.2879246 1.7240101e-05

ff_layers.2.weight f4 [2, 128]
000000 41 a4 06 3e a7 ef 98 bd ac e4 39 3c 50 6e 26 3d
       0.13148595 -0.07467585 0.0113460235 0.040632546
000010 97 10 86 3e 2a 3d 72 bd b5 c0 c1 38 f5 db 19 be
       0.26184532 -0.05914036 9.2388516e-05 -0.15025313
000020 aa 91 af 3c 8e 0e 22 40 7e 04 65 be 29 7b 6b c0
       0.021431763 2.5321383 -0.22364995 -3.679392
000030 04 59 d5 3c 39 b6 39 bf e6 ba 5e 3f 72 26 51 bf
       0.026043423 -0.72543675 0.87003934 -0.8169929
000040 26 11 da bd 02 23 38 bd ba 7c ba 3c 59 ec 2a bc
       -0.10647802 -0.04495526 0.022764552 -0.010432326
000050 15 72 58 bd 9c f2 b6 bd 6f be b6 bc 95 24 9c bb
       -0.052843172 -0.08932993 -0.022307603 -0.004765103
000060 71 5e 82 bf 04 76 3e 3d a5 3f a6 be 42 8c 4c be
       -1.0185071 0.046499267 -0.32470432 -0.19975379
000070 2a a8 70 3e 43 70 a4 3d da a8 75 be 63 ed 37 40
       0.2350165 0.08029225 -0.23990193 2.873864
000080 6d c3 ec 3d a1 d9 7e c0 b7 f3 84 3f 4b 84 64 3d
       0.11560712 -3.982033 1.0386876 0.055790227
000090 e1 7e 7f 3e 3a 73 5c 3e 7d 19 aa bc ad a2 22 c0
       0.24950744 0.2152833 -0.020764107 -2.541179
0000a0 1c 11 d6 bc 01 00 7a be 97 df c0 3c 03 d8 06 3f
       -0.026131205 -0.24414064 0.023544116 0.5267336
0000b0 82 3a 0a 3d b9 02 a9 be b4 1c c1 bc 80 bd 23 be
       0.033747204 -0.3300989 -0.023573257 -0.15990257
0000c0 60 ba 93 bc 59 f4 03 bf dc 0b 46 3b 90 4e 16 3d
       -0.018033206 -0.5154472 0.003021947 0.036696017
0000d0 c2 32 85 be 37 ee 9a bc e3 75 35 40 d0 f4 80 3d
       -0.26015288 -0.018912418 2.8353202 0.06296694
0000e0 1f 81 a6 3c d4 26 2d c0 90 8d 0a bd c4 7f 9e bd
       0.020325242 -2.7054949 -0.03382641 -0.07739213
0000f0 d7 85 48 c0 96 d8 3f bd 5a 60 9f 3e cf c7 33 be
       -3.133169 -0.04683741 0.31128198 -0.1755669
000100 b6 e1 65 3a e1 53 51 40 2b ca ba bd 51 b7 98 bb
       0.000876929 3.2707446 -0.09120592 -0.004660525
000110 ec 52 8f 3c 51 bf c3 bc 27 e5 a2 3d 3e 0b 34 bd
       0.017495595 -0.023894938 0.079538636 -0.043956034
000120 41 fc 3a 3a 05 86 ae 3d 24 be 57 3e 3b f3 23 3c
       0.00071329257 0.08521656 0.21068627 0.010006721
000130 40 dc 3b 40 85 c5 64 3d fe cb 86 3c 87 b0 1a 3d
       2.935318 0.05585243 0.016454693 0.037766006
000140 84 dc 06 be dd f8 50 c0 75 b9 8e 3d e7 0b ec 3f
       -0.13170058 -3.2651894 0.06968967 1.8441132
000150 98 6f 0b 40 1f d9 19 40 5f 1f 01 3e 1e a3 22 be
       2.1786861 2.403877 0.12609623 -0.15882537
000160 c4 26 47 3e f1 86 8e 3e b0 2b 4a 3e d7 cf f4 3a
       0.19448382 0.27837327 0.19743228 0.0018677664
000170 79 a3 1d bf 42 0b c6 3a 73 28 09 bd 44 d0 4c 40
       -0.61577564 0.0015109556 -0.03348584 3.2002115
000180 76 51 fc bd 33 8f 6b bc 20 7a 9d 3b b7 b2 ce 3d
       -0.12320225 -0.014377403 0.004805818 0.10092681
000190 50 b7 c5 3d c2 25 49 bc e0 fc b5 be 1a d5 e3 bd
       0.09654105 -0.012277069 -0.3554449 -0.1112463
0001a0 43 81 2b 3c c1 90 ea bc 4a 48 14 3e 72 9c 7f be
       0.01046783 -0.028633477 0.14480701 -0.24962023
0001b0 eb ed 23 3e 6a cb 25 c0 cf c3 21 bc c7 ef 04 bc
       0.16008727 -2.5905404 -0.009873345 -0.008113808
0001c0 5a 76 23 3e 4d 81 1a 3e a3 f6 b2 bd d4 95 58 3e
       0.15963116 0.15088387 -0.087384485 0.21150905
0001d0 b8 2e 81 3c a4 c6 05 40 5f 71 a7 be 01 b6 b4 be
       0.015769348 2.090249 -0.32703683 -0.35295108
0001e0 5a 33 15 be e3 48 68 3d f5 7a af bd ff 5e c6 bd
       -0.1457037 0.056710135 -0.08568374 -0.09686088
0001f0 fa 18 cf bc 0e 80 8b bd 77 66 5d be 27 a7 ae ba
       -0.025280464 -0.06811534 -0.21621118 -0.0013324962
000200 ae a1 0c 3f be 26 0a bf d0 b1 d9 be eb e1 c2 be
       0.54934204 -0.53965366 -0.42518473 -0.38062987
000210 58 fb db 3e a9 82 47 bd 28 4b 12 3d 05 f6 ad bd
       0.42965198 -0.04870859 0.035716206 -0.0849419
000220 68 4b a8 3d 11 49 25 40 48 aa db be 4b c1 f9 bf
       0.082175076 2.5825846 -0.42903352 -1.9512113
000230 bf 61 8f bc 0a 61 56 bf ee f3 56 3f f8 18 94 3d
       -0.017502664 -0.8374182 0.8396596 0.07231325
000240 d1 3b e1 3c b3 68 2c bd 03 72 d0 bc dc ae c4 bc
       0.027494343 -0.042092036 -0.02544499 -0.02400916
000250 29 cc 1f bc 02 b3 2b bd a4 7e 3a bb 0e cc 06 bb
       -0.009753265 -0.041918762 -0.0028456831 -0.0020568403
000260 09 0b ec bd e1 72 8e ba f2 28 37 c0 d7 94 e7 3e
       -0.11525542 -0.0010867977 -2.861874 0.45230743
000270 03 85 c2 3e 0f fb 9e 3d 9a fa 89 3e 83 fd e7 3f
       0.37992105 0.077627294 0.26949006 1.8124241
000280 ad 6e 28 bf 54 91 09 c0 fd 80 42 bf 18 3d 94 3e
       -0.6579388 -2.1494951 -0.7597807 0.2895286
000290 da 23 c7 3e b4 9f fa 3e 28 fe dd 3a 8f fe 0e c0
       0.3889454 0.4894997 0.0016936706 -2.234287
0002a0 15 fd ed 3d 02 1b 26 be 0f 04 eb 3e f6 4e 69 3f
       0.11620537 -0.1622124 0.45901534 0.9113611
0002b0 8f 34 00 3d 40 fe 03 bf 19 9d 9f bd 50 3b 03 3f
       0.031300124 -0.5155983 -0.07793636 0.5126238
0002c0 f6 aa d3 3c 56 d3 e2 3e b7 97 3d bb 02 64 ac bd
       0.025838356 0.44301862 -0.002892954 -0.084175125
0002d0 ba c5 d4 be ca ec 85 3a 8a e5 c1 3f d2 9e a3 3e
       -0.41557103 0.0010217663 1.5148175 0.31957108
0002e0 73 3c ba be e4 fb 1c c0 24 a4 31 bb e3 ed db 3e
       -0.36374244 -2.4528742 -0.0027105892 0.4295493
0002f0 85 3b 21 c0 00 ee 33 bd 6c 41 ba 3e a1 81 b8 be
       -2.5192578 -0.043928146 0.36378038 -0.360364
000300 05 17 77 bc 93 3c 0b 40 d8 b9 b7 bc e0 bd 08 be
       -0.015081172 2.1755722 -0.022427484 -0.13353682
000310 0c 6c 1e bd 0c 3e 03 bd 75 f3 78 bb 53 21 05 bd
       -0.03867726 -0.032041594 -0.0037986909 -0.032502484
000320 49 fd 1e 3f a1 63 0b bf cd 43 b7 3e a8 8b 57 bd
       0.6210523 -0.54448897 0.35793915 -0.05262342
000330 ad 9b f5 3f b1 cd 25 3d 13 46 9c bd c7 f6 04 3d
       1.9188133 0.040479366 -0.07630553 0.032461908
000340 dd 97 93 be 2f 57 0c c0 1e 8e 8b bb 2d 3f 1f 40
       -0.288268 -2.1928213 -0.004258885 2.488231
000350 50 0c 10 40 38 33 1b 40 8f 3b 12 3f de 56 b0 3e
       2.2507515 2.4250011 0.5712213 0.34441274
000360 67 54 e8 3e e8 d3 28 bf da 15 0a 3f 21 7a 9a bd
       0.45376894 -0.65948343 0.5393959 -0.075428255
000370 6f b8 1f bf 51 dd 9e be cb 0b 80 bd 44 f9 d2 3f
       -0.623908 -0.31028226 -0.06252249 1.648232
000380 ea ee cf bb 83 d5 14 3e 2f cc 1d bf 2c d3 01 3f
       -0.0063456194 0.14534573 -0.61639684 0.5071285
000390 7a cd 33 bf 43 8f 84 bd d5 26 10 bf 59 46 ed be
       -0.7023541 -0.064726375 -0.5630925 -0.46342734
0003a0 ac 26 cf 3c ec 92 98 bd 8b b3 11 bf cb c1 e6 be
       0.025286995 -0.07449898 -0.56914586 -0.45069727
0003b0 90 bf cc 3f 7b b5 1e c0 1c 73 97 3d 7d 51 7b bc
       1.599596 -2.4798267 0.07395002 -0.015339253
0003c0 e9 3d b4 bf c5 0e 03 3f de 35 a3 be 7a a7 5b bf
       -1.4081393 0.5119441 -0.31877035 -0.85802424
0003d0 98 9d 5c 3c 59 2d 27 40 17 dd 4b bf a6 62 a2 be
       0.013465308 2.6121428 -0.7963423 -0.31715888
0003e0 d3 72 c1 be bf 16 99 3e fe 3f 2a bc bb 8e 09 bd
       -0.37782916 0.29900166 -0.0103912335 -0.033583384
0003f0 16 9d fc bc bc d6 7d bc 6e 27 ff be a8 97 4e bd
       -0.030836623 -0.015493091 -0.4983477 -0.0504376

ff_layers.2.bias f4 [2]
000000 d7 82 d0 bc 80 22 54 3d
       -0.025453014 0.051790714
