pytorch/mlopt_model_cartpole_20200610_1131_classifier.pt (torch_old, 88295 bytes, 8 tensors)

layers.0.weight f4 [32, 13]
000000 92 0b 22 c0 cc 9a 8c c0 e2 73 b3 bf 8c 18 fe 3e
       -2.5319562 -4.393896 -1.401974 0.49628103
000010 85 01 01 80 49 49 03 80 75 92 05 80 7e 10 00 80
       -9.238e-41 -3.01796e-40 -5.11716e-40 -5.916e-42
000020 62 b6 20 bf ed 03 21 bf 5f 22 29 be c3 5a ff be
       -0.62778294 -0.62896615 -0.16517018 -0.49873933
000030 ab 35 14 bf dd 4a ac 3e 68 22 1f c0 87 2a 8e 3f
       -0.5789439 0.33650866 -2.486475 1.1106728
000040 f3 0c c6 bf ba a2 00 00 7a de 01 80 6b 83 03 80
       -1.5472702 5.8375e-41 -1.71645e-40 -3.2265e-40
000050 0a 54 02 00 d4 aa 06 3e 28 69 ca bf 3a 05 e4 3e
       2.13819e-40 0.13151103 -1.5813341 0.44535238
000060 28 7f af be 8b 57 b7 be 0d 30 59 3f e8 62 e9 bf
       -0.342767 -0.35808977 0.84838945 -1.8233309
000070 21 e4 8f 3e a7 35 7c bf cf 6d 03 80 da ef 04 80
       0.28103736 -0.98519367 -3.14898e-40 -4.53385e-40
000080 07 b2 01 00 73 d2 06 80 7f fd a1 3d d3 53 13 c0
       1.557e-40 -6.26508e-40 0.07909679 -2.3019912
000090 49 ff f0 3e 46 2f 2f bf 22 e4 46 bf 4e 4f bc 3f
       0.47069767 -0.6843151 -0.77691853 1.4711702
0000a0 75 ba 09 c0 2d ee bc 3f 47 68 ce bf 9d c6 04 80
       -2.1520054 1.4760185 -1.6125573 -4.38591e-40
0000b0 17 ee 04 00 65 a4 01 00 d4 3e 00 80 8d 82 50 3f
       4.52753e-40 1.50809e-40 -2.2538e-41 0.81449205
0000c0 de e8 ab bf 55 d4 14 40 9e 80 22 3d 8f 90 b8 3d
       -1.343044 2.3254597 0.03967344 0.09011947
0000d0 b0 92 9d 3f 2f 31 63 bf 57 64 8a bf 8a 9f 8f 3f
       1.231039 -0.88746923 -1.0811871 1.1220562
0000e0 7c d3 06 80 9e e9 03 00 07 82 02 80 d9 69 04 80
       -6.26879e-40 3.59313e-40 -2.30316e-40 -4.05313e-40
0000f0 aa 31 9c 3f de 76 da bf bc 1d a5 3e dc a9 5b bf
       1.2202656 -1.7067525 0.32249248 -0.8580606
000100 bb 54 64 bf b4 e7 9b be 57 9c 31 40 0b 41 b6 be
       -0.8919179 -0.30450213 2.7751672 -0.355965
000110 69 8c 9a be a0 db 05 80 3f b7 01 80 d3 e2 05 00
       -0.3018525 -5.37964e-40 -1.57572e-40 5.40547e-40
000120 28 22 05 00 0a 28 24 3f 3d 59 3b 3f 98 80 9c bf
       4.7143e-40 0.64123595 0.7318304 -1.2226744
000130 c7 6e b0 be 26 0a d4 be 14 f1 03 c0 f4 49 0a c0
       -0.34459516 -0.41413993 -2.0615892 -2.1607637
000140 a7 fd d3 3e c4 c3 88 bf dd 6a 06 00 ef 6d 05 00
       0.4140446 -1.0684743 5.89348e-40 4.98614e-40
000150 b9 3d 03 80 3d ca 06 00 6e 37 ec 3e 9e c8 5f be
       -2.97648e-40 6.23562e-40 0.4613604 -0.21853873
000160 d9 3b a0 bf 11 fd 2c bf fa e1 2e bf f5 19 c8 be
       -1.2518264 -0.6757365 -0.6831356 -0.39082304
000170 87 5d 83 c0 95 59 8b 3e fe e3 f4 bf 1b 38 05 00
       -4.105167 0.27216783 -1.9132078 4.79304e-40
000180 bd 68 00 80 03 4b 06 80 e0 ce 02 00 3b 21 16 3f
       -3.7573e-41 -5.77922e-40 2.57884e-40 0.58644456
000190 73 22 c3 bf ef 27 23 3f 70 80 e4 be 0c df 3c bf
       -1.5244888 0.6373281 -0.4462924 -0.7377784
0001a0 8e dc 18 c0 e6 63 86 c0 bd c2 6e 3f bd 7d 9d bf
       -2.3884616 -4.1996946 0.932659 -1.2303997
0001b0 59 80 02 80 d9 24 06 00 f6 59 02 00 c4 4f 00 80
       -2.29713e-40 5.64231e-40 2.15943e-40 -2.8615e-41
0001c0 13 92 26 3f 9e d0 ae be 83 e3 47 bf 64 df fc be
       0.6506664 -0.34143537 -0.7808153 -0.49389184
0001d0 21 78 02 bf 9a a4 de be 4d 5b 70 3f ec 5f c4 3f
       -0.5096455 -0.43484956 0.93889314 1.5341773
0001e0 5c 50 78 bf fd 5b 04 00 1d b0 00 00 99 0a 05 00
       -0.9699762 4.00341e-40 6.3178e-41 4.62979e-40
0001f0 d0 8b 05 00 b2 9e b4 3f 80 88 95 bd ba d9 93 bf
       5.09333e-40 1.411093 -0.07301426 -1.155082
000200 75 df 23 bf fe 36 4e bf 03 8b 69 bf 13 5d 32 40
       -0.64012843 -0.8055266 -0.9122774 2.7869308
000210 e5 b8 d3 bf fd 03 e6 3f a5 a9 03 80 ca b3 06 80
       -1.65408 1.7969967 -3.36363e-40 -6.15509e-40
000220 b4 21 04 80 40 56 05 80 9f f5 ec 3d 60 2e 4c 3f
       -3.79432e-40 -4.90118e-40 0.11570286 0.7975826
000230 0d e1 f7 bf 69 2a 38 bf e2 58 03 bf 23 43 de 3f
       -1.9365555 -0.7193971 -0.513075 1.7364239
000240 e9 7b 0e c0 51 26 c6 3f 19 78 bb bf 80 15 06 80
       -2.2263129 1.5480443 -1.4646026 -5.58726e-40
000250 12 08 01 00 11 18 00 80 3b 18 06 00 85 df 94 3e
       9.473e-41 -8.633e-42 5.59705e-40 0.29076782
000260 8c c9 b0 bf 7f e1 32 40 3a 66 55 be a8 04 9c 3c
       -1.3811507 2.7950132 -0.20839778 0.019045189
000270 8e 82 1b 40 74 ca 1b 40 86 61 b6 3f 2d 6b 1d bf
       2.4298434 2.4342318 1.4248512 -0.6149166
000280 59 5e 00 00 8d 11 05 00 5d af 05 00 74 98 06 80
       3.3846e-41 4.65474e-40 5.22086e-40 -6.05703e-40
000290 b2 82 89 bd 14 0b 7d bf 68 2d a4 3d c2 a5 21 bf
       -0.06714381 -0.9884503 0.08016473 -0.6314355
0002a0 c3 d6 d5 be 50 72 9d 3f 8e 5c 44 bf 36 64 4e bf
       -0.41765413 1.230051 -0.7670373 -0.8062166
0002b0 c3 af 1f bf 0b 98 01 80 65 19 05 00 1f 5a 05 80
       -0.62377566 -1.46378e-40 4.68287e-40 -4.91507e-40
0002c0 92 81 02 00 ff 29 7e 3e c5 8c 19 c0 da 00 8f 3e
       2.30152e-40 0.24820708 -2.399217 0.27930337
0002d0 6e 5e 91 bf 81 48 40 bf c0 09 ac bf 4f 5d e5 3f
       -1.1356943 -0.7511063 -1.3440475 1.79191
0002e0 e9 bd 1e 3f 65 4a ba ba e2 4c 04 80 00 e7 05 80
       0.6200853 -0.0014212845 -3.94922e-40 -5.42045e-40
0002f0 9b 61 04 80 2c 4b 03 80 8f 0f 43 3f 8f 89 95 3f
       -4.02356e-40 -3.02473e-40 0.76195616 1.1682605
000300 9f fd c0 bf 14 c6 30 bf 8e 2a 58 bf d1 12 0e 3e
       -1.5077399 -0.69052243 -0.84439933 0.13874365
000310 ab 64 60 c0 99 16 c3 3f 00 04 e6 bf 6f 69 04 80
       -3.5061443 1.5241271 -1.7969971 -4.05164e-40
000320 1e 77 03 00 cb 13 03 00 24 41 00 80 c3 6d b8 3b
       3.18238e-40 2.82607e-40 -2.3368e-41 0.005628319
000330 cc b2 ea bf f4 3f 73 3f 91 27 02 bf 62 5c 02 bf
       -1.8335814 0.9501946 -0.50841624 -0.50922215
000340 62 cb 91 3e 11 fa e1 3f e7 db b4 bf a7 b1 04 40
       0.2847548 1.7654439 -1.4129609 2.073343
000350 0f cc 03 80 35 2e 04 00 17 a3 05 80 3f 8a 04 80
       -3.48709e-40 3.83918e-40 -5.17683e-40 -4.16935e-40
000360 80 10 0b 3f bf 7d 8a bd 76 fd a0 bf 15 39 51 bf
       0.5432205 -0.067622654 -1.257735 -0.81727725
000370 74 8c 50 bf b8 bf fa 3f 73 f0 b6 3f 06 ac 0b 3f
       -0.81464314 1.9589758 1.4292129 0.5455936
000380 ee 4a 9e bf a5 43 01 00 90 38 03 00 ef 7a 06 00
       -1.2366617 1.16102e-40 2.95797e-40 5.95113e-40
000390 1e 11 00 00 10 96 84 be 9b 94 e5 bf 0e d0 88 be
       6.14e-42 -0.2589574 -1.7935976 -0.26721233
0003a0 d7 9e 64 bf 73 b7 3f bf 21 10 3d 40 49 f4 9b 40
       -0.8930487 -0.74889296 2.9541094 4.87357
0003b0 ef ad 22 bf e6 ef bf 3f 71 16 06 80 76 7f 06 00
       -0.6354665 1.4995086 -5.59063e-40 5.96737e-40
0003c0 41 2e 05 80 b3 61 04 00 49 a3 3f 3f d6 86 af be
       -4.7577e-40 4.0239e-40 0.7485853 -0.3428256
0003d0 86 e1 36 be 49 27 1b bf dd 6d e2 be f7 e7 33 40
       -0.17859468 -0.6060682 -0.44224444 2.811033
0003e0 94 3f c3 3f b1 37 da 3f ff ea 64 bf f9 d4 04 80
       1.5253778 1.7048246 -0.89421076 -4.43742e-40
0003f0 36 16 04 00 ed 7d 04 80 bd 1a 04 80 3b 41 d7 3e
       3.7531e-40 -4.12516e-40 -3.76934e-40 0.42041954

layers.0.bias f4 [32]
000000 0d 16 e5 3e ce 8d 2b 3f 0b 63 50 3f 37 e8 60 bb
       0.44743386 0.6701325 0.8140113 -0.0034318098
000010 6d c0 80 3f 15 b4 1a 3f 49 0b 15 3f b6 7c c1 3e
       1.0058724 0.60431033 0.58220345 0.3779046
000020 05 8a 03 3f 8e 5a 1a 3f 94 81 4d 3f 04 fc 8d 3e
       0.51382476 0.60294425 0.80275846 0.27731335
000030 38 7b 6b 3f bd 86 7b 3f 65 aa 4e 3f 43 c2 3d 3f
       0.9198489 0.9825247 0.8072875 0.74124545
000040 73 9c 6d 3f c0 cc 87 3f b2 8c 9f 3e cc cd 68 3f
       0.9281685 1.060936 0.3116203 0.9093902
000050 68 43 3b 3f 8d 5d 54 3f 3b c4 34 3f 18 6f 29 3f
       0.7314973 0.8295525 0.70611924 0.6618514
000060 15 1d 35 3f c5 27 0f 3f d9 de 0b 3f ad 0e 0d 3f
       0.707475 0.5592006 0.54636914 0.5510052
000070 59 36 c3 3e 76 c7 6a 3f 52 06 54 3f f6 f7 5b 3f
       0.381274 0.91710603 0.82822144 0.85925233

layers.1.weight f4 [32, 32]
000000 d1 c2 2c 3f 7f af a1 be 98 9e e5 be 57 88 ad bf
       0.67484766 -0.31579205 -0.4484756 -1.3557233
000010 51 81 eb 3e 2c 72 29 be ab 80 43 bf 92 c6 be bf
       0.45997098 -0.1654746 -0.76368207 -1.4904349
000020 1b 10 af be f5 a1 fe 3e 86 b4 99 3e be 4b de 3e
       -0.34191975 0.49732938 0.3002054 0.43417162
000030 95 90 c5 3f 6d 74 bb 3c 90 f5 db be 4f 8b 4e bf
       1.5434748 0.022882665 -0.42960787 -0.8068132
000040 e1 a1 25 3e 7a b2 ea 3e 13 8e d5 3f 2a 0e 9a 3f
       0.16175033 0.45839292 1.6683983 1.2035573
000050 91 c7 8a 3f 99 91 7a 3f f2 a2 22 3f 8d 93 1b 3f
       1.0842153 0.97878414 0.63529885 0.6077202
000060 65 71 b2 be 88 36 e3 3e 47 5c 70 be 1d 52 50 be
       -0.34852138 0.44377542 -0.23472701 -0.20343824
000070 2a 2d 94 3e 58 5c 53 bf 81 76 7e 3e e7 cd 5a 3e
       0.28940707 -0.8256278 0.24849893 0.21367608
000080 d6 5c 84 bd b6 46 82 3f d8 ef c4 bd 49 3c dd bf
       -0.064630195 1.0177829 -0.09616059 -1.7284023
000090 72 c5 91 be cc 0a c2 3e b8 4f 23 3f 7f f5 97 3f
       -0.2847095 0.37898862 0.63793516 1.1871794
0000a0 58 f2 84 3e 9d e0 99 3f ac a6 43 bf 44 94 17 c0
       0.25966144 1.2021672 -0.76426196 -2.3684244
0000b0 38 78 e5 bd 8b 0b a9 be f3 83 8b 3e 9b 7c 7e 3f
       -0.112045705 -0.3301662 0.27249107 0.9940888
0000c0 20 36 00 3e 0b e7 4e 3e eb 4f d6 be 4a a8 05 3f
       0.12520647 0.20205323 -0.41857848 0.52209914
0000d0 3a 6a 80 bd 05 a1 0a 3e 7e 59 2a 3f c2 9c 74 3c
       -0.06270261 0.13537987 0.66542804 0.014929952
0000e0 83 44 03 3f 76 70 a8 3e 23 7b 56 3f bb ef 99 3e
       0.51276416 0.328983 0.8378164 0.30065712
0000f0 9e 92 86 3e a2 7f 3b 3f 49 aa 2c 3f d6 3f 53 3d
       0.26283735 0.7324163 0.67447335 0.05157455
000100 a8 e6 16 3f 36 48 ed 3e 3b 99 37 bf eb 3b 2c c0
       0.58945704 0.46344155 -0.71718186 -2.691157
000110 4f d5 00 bf cb f8 04 3d 32 b1 2a 3f bc 48 3c 3d
       -0.50325483 0.03246383 0.6667663 0.045967802
000120 4b b1 c1 3e da 16 95 3f 0e 36 8f be 99 0c 1d c0
       0.37830576 1.1647599 -0.27970928 -2.453894
000130 5f 65 2e 3f bf 99 fc be bd f6 59 3f 49 6c 04 3e
       0.6812343 -0.4933605 0.8514212 0.12931933
000140 3e 7a b3 3e 87 6d e9 3d 33 01 e6 be 26 14 ab 3e
       0.350542 0.11397844 -0.4492279 0.3341381
000150 3c 4e 21 3f 4f c4 2f 3f 28 f4 9d 3f d2 72 02 3f
       0.6301 0.6865892 1.2340136 0.5095645
000160 53 04 e3 3e c4 7d dc 3e 81 d6 c1 3e b2 21 9d 3f
       0.44339237 0.43064702 0.37858966 1.2275908
000170 4f 2a ba 3e e9 63 cc be ba 5d 15 3f 10 ba 15 3d
       0.36360404 -0.39919975 0.5834614 0.036554396
000180 03 0d 8a bf 30 9f 46 3e 07 20 1a bc cd 61 1c c0
       -1.0785221 0.19396663 -0.00940705 -2.4434693
000190 c0 6f 2c 3e 0f 85 a7 be 7d f6 9f 3d b5 2e 57 3e
       0.16839504 -0.32718703 0.07810686 0.21013911
0001a0 71 a1 91 be dd 39 fd 3e 34 bf b0 be 46 48 4d c0
       -0.28443483 0.4945821 -0.34520876 -3.2075362
0001b0 ac d8 b0 3f 3e 41 73 3e af 48 ea be 98 86 8a 3d
       1.3816123 0.23755357 -0.45758578 0.06763953
0001c0 10 66 49 3e 50 99 b3 3f 08 7e 20 bf 14 c7 e0 3f
       0.1966784 1.4031162 -0.6269231 1.7560754
0001d0 3a a9 ca 3f 0a ce a0 3f e5 e8 23 3f 44 cf 49 be
       1.5832894 1.2562878 0.64027244 -0.19707972
0001e0 d5 66 a4 be 85 80 11 3f 9d c6 25 3f 12 6e c2 3e
       -0.32109705 0.5683673 0.64756185 0.37974602
0001f0 46 fd 2f 3f b0 f3 08 bf 11 f6 48 3e 1f 12 86 3f
       0.6874584 -0.5349684 0.19625117 1.047428
000200 a0 6c aa 3f cf 8e e0 3e f7 c7 a8 3f 09 28 f8 bf
       1.33144 0.43858954 1.3186024 -1.9387218
000210 14 7b 21 3f 73 14 4a be b5 96 8b 3f 2b e8 a0 3f
       0.6307843 -0.19734363 1.0905367 1.2570852
000220 40 29 17 3f ed a0 92 be 7a d6 0b 3e c0 7b 4a c0
       0.5904732 -0.28638402 0.13656035 -3.163803
000230 e5 81 c0 be 2f 87 6e 3f e6 bb 8d bf ce a4 0b 3f
       -0.37599102 0.93175024 -1.1072967 0.54548347
000240 28 a5 16 3f 8b c7 e0 3e 1e 72 87 bf 3c 34 49 be
       0.5884576 0.4390224 -1.0581701 -0.19648832
000250 46 c1 be 3e 55 cf 1c 3f 94 bb 00 be a7 67 42 be
       0.3725683 0.61253864 -0.12571555 -0.18984853
000260 28 e3 b0 3e 29 db 5b bd 16 7b 86 be 90 ad 4e be
       0.34548306 -0.053675804 -0.26265782 -0.20183396
000270 69 09 17 3f 0f 8f 41 3d 78 95 25 bc a0 1d 60 3f
       0.58998734 0.047255572 -0.010106437 0.87545204
000280 75 ec 00 40 f5 82 9e 3e 9e b2 9b 3f cb a5 1f c0
       2.0144322 0.30959287 1.2163885 -2.4944942
000290 22 5c 5b 3f 81 d8 84 bf b0 d5 3a 3f 68 dd c1 3e
       0.8568746 -1.0378572 0.7298231 0.37864232
0002a0 b5 c7 8a 3f bb 52 60 3d 34 30 65 3e 7a 36 01 c0
       1.0842196 0.054766398 0.2238167 -2.01895
0002b0 5e ff 17 be 16 5e f9 3d 60 50 f5 be 03 d7 3e be
       -0.14843509 0.121761486 -0.47912884 -0.18636708
0002c0 69 b4 4f 3f 2e f8 7d bf 49 49 db 3e 45 b5 bc be
       0.8113466 -0.9920682 0.4282935 -0.36857048
0002d0 a4 2b 4e 3f e1 71 7b 3f 7a bd b4 3f 17 8d 12 3f
       0.8053534 0.9822064 1.4120324 0.57246536
0002e0 65 aa 41 3d 06 f5 36 bf 61 cb 0c be cb 2d 05 bf
       0.04728164 -0.71467626 -0.13749458 -0.52023
0002f0 94 5d 23 3f a7 e8 bf 3e 5b e7 17 bf 00 bb 55 3f
       0.63814664 0.37482187 -0.59337395 0.83488464
000300 f8 24 a2 3f e8 d6 92 bf b4 4f 10 bf 1b 12 cc c0
       1.2667532 -1.1471834 -0.5637162 -6.37721
000310 c6 83 e0 3e 66 d1 a8 3f fd e3 cf 3e 16 25 f4 bf
       0.43850535 1.3188903 0.4060363 -1.9073818
000320 f9 a8 11 3f e0 b5 18 3f fb aa 1f 40 dd 45 7a c0
       0.56898457 0.5965252 2.4948108 -3.910514
000330 8f c7 bb bf c3 d3 d0 be bc 5e ec 3f 28 10 5c c0
       -1.4670275 -0.4078656 1.8466411 -3.438486
000340 6c 50 d1 3f 81 15 c6 bf df ce cb 3f 02 e1 24 c0
       1.6352668 -1.5475312 1.5922507 -2.5762334
000350 4c 2d 97 bf 19 67 6f bf 95 34 96 3e 62 27 19 40
       -1.1810699 -0.9351669 0.29336992 2.3930287
000360 ba 52 f2 3f ce d6 19 3f f4 80 67 c0 f8 3e cb 3f
       1.8931496 0.6009339 -3.6172457 1.5878592
000370 78 f0 17 bf 8c 42 12 3d ee 3e 9d 3f 85 b9 24 c0
       -0.593513 0.035707995 1.228483 -2.5738232
000380 fb e9 03 00 3a df 74 9d b7 62 69 a5 ab 8c 03 92
       3.59443e-40 -3.2408537e-21 -2.0242974e-16 -4.15097e-28
000390 41 e3 9a ac 5e bf 83 9f af 71 1a a7 5c 8d 91 9f
       -4.4021735e-12 -5.579725e-20 -2.1433421e-15 -6.164375e-20
0003a0 ab db 82 a6 7e 1f 6a ad 27 a5 7a a0 e1 80 d2 8e
       -9.080103e-16 -1.3308353e-11 -2.1230468e-19 -5.1893103e-30
0003b0 58 96 64 9e 0d 33 c7 a8 30 17 c5 a9 fb e6 56 a0
       -1.210131e-20 -2.2115578e-14 -8.75258e-14 -1.820293e-19
0003c0 c6 67 b2 a6 c3 06 20 a5 17 b1 e9 98 c5 4d 68 ad
       -1.2379359e-15 -1.3880079e-16 -6.0407903e-24 -1.32049415e-11
0003d0 22 9f 60 a2 f9 9c 9f 9f b2 e3 56 aa 03 e9 6a a4
       -3.0441905e-18 -6.759881e-20 -1.9086016e-13 -5.093803e-17
0003e0 72 99 03 a9 e4 f6 1d 96 04 44 8b a3 81 20 0d aa
       -2.9220936e-14 -1.2760264e-25 -1.5099216e-17 -1.2534593e-13
0003f0 4b 1e a8 9d 50 4b 2a a5 87 c5 e5 a4 8b 02 ee a9
       -4.450055e-21 -1.4770666e-16 -9.9647543e-17 -1.0569764e-13

layers.1.bias f4 [32]
000000 73 39 3e 3d d1 29 ef 3d d6 4b de 3e b0 0e 04 3f
       0.046441507 0.11677898 0.43417233 0.5158491
000010 55 f3 46 3f 42 2e ee 3e 53 1c 86 3e 7e d0 05 00
       0.77715045 0.46519667 0.26193485 5.3397e-40
000020 c0 64 f9 3e a0 7d 76 bb f9 8b b2 3b ce 64 c6 b9
       0.4870968 -0.00376115 0.005448815 -0.00037840608
000030 29 74 b0 3e 1d 65 18 3e b8 fb cb 3e 52 8d 8d 3e
       0.34463623 0.14882322 0.39840484 0.2764688
000040 1c bd c3 bd 0e 3f 07 bf 9b 64 54 3e 76 dd 3b be
       -0.09557554 -0.5283059 0.20741503 -0.183462
000050 aa d8 d0 3d f1 02 9f bd 28 6f f8 3e d1 6c d1 ba
       0.101975754 -0.07764233 0.48522305 -0.0015977864
000060 f4 4f 03 00 03 0f 27 3f 53 2f 07 3e 32 05 02 80
       3.04188e-40 0.6525728 0.13201647 -1.85535e-40
000070 ec 38 c7 3e 9e 0e c2 3e b5 8c 2a be be 1d 11 3f
       0.38910615 0.37901777 -0.16655238 0.5668601

layers.2.weight f4 [32, 32]
000000 97 3a 4a 3f e5 48 97 3d f5 57 3a 3f 31 5f 46 3f
       0.7899565 0.073869504 0.7279046 0.77489
000010 46 7d 32 be dd fd 03 3f 8a d9 6b bf 35 97 2c ae
       -0.174306 0.5155924 -0.92128813 -3.924257e-11
000020 2d 3e af be e2 dd 9d bc f1 6f 40 be 11 80 35 3c
       -0.34227124 -0.019270841 -0.18792702 0.011077897
000030 7d 68 97 bc fc 0f bd 3e fa 08 73 3e 7f 90 70 bf
       -0.018482441 0.36926258 0.23733893 -0.93970484
000040 a6 11 e3 3e 2b 7f 6a bf 4e 11 87 3d df 00 a3 bf
       0.44349402 -0.9160029 0.065950975 -1.2734641
000050 e0 24 77 3e 96 63 90 bf 44 ff a6 3e aa 46 ff 3b
       0.2413516 -1.1280391 0.32616627 0.0077904062
000060 23 4a 06 80 cd 81 74 3e bd d0 9a 3e fa 07 93 2f
       -5.77608e-40 0.2387764 0.3023738 2.6744812e-10
000070 b4 8d 13 3e 32 2e 73 3f 58 00 70 be 22 a4 c7 3d
       0.14409524 0.94992363 -0.23437631 0.09748103
000080 79 8d d9 02 1b 7c f4 93 59 7c 00 00 3a 0e dd a7
       3.1966486e-37 -6.1716637e-27 4.4608e-41 -6.1355247e-15
000090 4f dc 28 a2 a0 7a 46 9c d4 49 9a aa 72 27 05 80
       -2.2884876e-18 -6.5671194e-22 -2.7407124e-13 -4.73328e-40
0000a0 23 3e f9 a7 fa 31 09 80 cd 59 2f a7 27 1e 05 80
       -6.917875e-15 -8.44448e-40 -2.433481e-15 -4.69994e-40
0000b0 b4 81 94 a8 54 46 04 00 e0 28 2f 9f c8 e6 c1 a4
       -1.648755e-14 3.92571e-40 -3.7091502e-20 -8.4091366e-17
0000c0 ce f8 03 80 e9 bb 50 ad 21 a3 cd a8 3f 9a a0 ab
       -3.64761e-40 -1.18651556e-11 -2.2830318e-14 -1.1411496e-12
0000d0 24 23 80 92 26 ea a8 b6 df 64 da 99 46 51 02 80
       -8.0865985e-28 -5.0340486e-06 -2.2581413e-23 -2.12826e-40
0000e0 0b 85 03 00 ec a9 36 93 67 01 80 92 2c 02 03 80
       3.23233e-40 -2.3055408e-27 -8.078281e-28 -2.76286e-40
0000f0 ad 23 01 aa e1 c5 27 b4 05 d4 ce b5 60 6f 42 9c
       -1.1469879e-13 -1.5625075e-07 -1.5409902e-06 -6.4333164e-22
000100 cd 8e d8 3e 2e 1f 0e bf 73 82 bc bd 56 59 d4 3e
       0.42296448 -0.55516326 -0.09204569 0.41474408
000110 bd 35 45 3f 75 47 9e 3f d9 74 6c be 7a 2d 12 31
       0.77035123 1.2365557 -0.23091449 2.1271647e-09
000120 87 e2 13 3f 5a 0b 10 bc 02 50 31 3f 87 39 39 3b
       0.5776753 -0.008791769 0.6926271 0.0028263049
000130 98 fa c1 3f b5 9e 66 3e d8 57 78 3f 4b 2c 00 3f
       1.51546 0.2252148 0.9700904 0.50067586
000140 f5 c2 d7 3e fc 75 c0 3f 51 f3 0f 3f c3 aa 80 bd
       0.42140928 1.5036006 0.56230646 -0.0628257
000150 8b 5d ed be 75 f9 45 3f e3 ea 52 be 96 17 a2 ba
       -0.4636043 0.77333766 -0.20597415 -0.0012366648
000160 46 69 00 00 a5 82 4c 3f 49 05 20 bf e2 f3 59 b3
       3.7765e-41 0.7988685 -0.62508065 -5.074606e-08
000170 ce ab 61 3f 67 1b 34 bf d2 7f 9d 3d 74 58 bb 3d
       0.8815278 -0.7035431 0.076903954 0.091477305
000180 94 57 95 3d aa fe 49 3f f3 c0 4e 3f 93 f4 b4 3f
       0.07292095 0.7890421 0.8076317 1.4137138
000190 58 23 91 3f 3a 34 18 3f 1f bf 55 c0 1a b3 00 37
       1.1338911 0.5945469 -3.33979 7.671095e-06
0001a0 e1 50 72 3f d5 af 59 3a b3 71 98 bd 9e 27 5a 3b
       0.9465466 0.0008304094 -0.074435614 0.0033287774
0001b0 7d ec 4e 3f 63 9f b5 3e ee 97 20 3f 37 29 98 3e
       0.808296 0.35473165 0.62731826 0.29718944
0001c0 78 84 41 bf 40 e0 89 c0 f9 79 b3 3e 51 55 79 bf
       -0.75592756 -4.3086243 0.35053995 -0.9739581
0001d0 eb f6 1d 3f d8 6b 14 c0 58 33 b9 3f 05 e0 35 bb
       0.6170489 -2.3190823 1.4468794 -0.0027751934
0001e0 cc e7 02 00 ca f3 1e 3f 33 dc 55 3f 6f 8c 4a b6
       2.66824e-40 0.6209074 0.8353912 -3.0182089e-06
0001f0 93 20 96 3f b0 c2 30 3f 36 e5 cc bf 70 68 0b 3f
       1.1728691 0.6904707 -1.600745 0.54456234
000200 45 2b ff 3b c4 f0 2a 3f dc dc c4 3e 5f a4 32 bd
       0.0077871406 0.6677363 0.38449752 -0.043613788
000210 66 cd a6 3e d4 01 67 bd 3c 22 8d bf 4f 1d 94 b5
       0.32578582 -0.056398228 -1.1026073 -1.1035389e-06
000220 3c 8d a8 3e f2 ee 4b 3c f6 d8 bf be f5 be 10 bc
       0.32920253 0.012447106 -0.37470216 -0.00883459
000230 45 9e 26 bc d0 da d4 3f 2d 08 10 3f fe ea 83 3d
       -0.01016957 1.6629276 0.56262475 0.064413056
000240 a4 2e f6 be 94 8d 4e bf c4 1d 00 be f7 34 a6 be
       -0.4808246 -0.8068478 -0.12511355 -0.32462284
000250 d0 a9 72 3f 29 f1 7e bf 34 9b 93 3f 33 dc 0e 3c
       0.94790363 -0.9958673 1.1531739 0.008719492
000260 6a 18 03 80 9b a7 83 be e9 7d 1a 3f 67 35 a5 b8
       -2.84265e-40 -0.2571381 0.60348374 -7.87776e-05
000270 e5 11 64 be 6e 57 a6 3f 44 7a 41 bf d8 4b a2 3f
       -0.22272451 1.2995431 -0.7557719 1.2679396
000280 94 91 0e 3e 7f aa 4e 3e 02 a4 0d 3e 3b a8 04 3f
       0.13922721 0.20182227 0.13832095 0.518192
000290 34 b5 95 be 47 85 37 3e e7 57 34 3f ec ec 17 ac
       -0.2923981 0.17921935 0.7044663 -2.1589909e-12
0002a0 a9 2d 1a be 5d b2 a5 b7 bf b0 27 bd 2e 33 38 bc
       -0.1505648 -1.975259e-05 -0.040940043 -0.011242671
0002b0 d9 48 f1 3d f5 20 92 bf 4f c3 08 bf 1a f9 45 3f
       0.11781473 -1.1416308 -0.5342302 0.77333224
0002c0 66 d6 75 3f 38 86 ef be 59 79 ed be 9f 56 87 3f
       0.9603027 -0.46782088 -0.46381643 1.057331
0002d0 da a4 24 bd ae d1 46 3f af 5d 19 bf 79 4b 1d 3b
       -0.040196277 0.77663696 -0.59908575 0.0024001284
0002e0 74 26 08 80 5b 3a f4 bd f7 80 b8 3e 30 bd 59 b6
       -7.48478e-40 -0.11925193 0.36035892 -3.2445641e-06
0002f0 d7 65 aa 3e 29 31 b0 3e 28 69 55 3e 61 19 47 bf
       0.33280823 0.34412506 0.20840895 -0.777731
000300 3a 0e e5 3e ed 40 d0 3d 87 84 11 bd 96 8f 23 3f
       0.44737417 0.101686336 -0.03552678 0.6389097
000310 2e d3 57 3c 55 57 c8 3c 7c 44 31 bf a9 a4 1e b7
       0.013172908 0.024455706 -0.69245124 -9.455872e-06
000320 45 6e c3 bd 91 93 c6 3b 9d 4e 76 3f e9 8a ef ba
       -0.095425166 0.0060600718 0.96213704 -0.0018275651
000330 3c 14 1d be 57 14 52 3e 10 b0 40 3f 6b 3a ff 3e
       -0.1533975 0.20515572 0.7526865 0.49849257
000340 3e d3 9f 3e 28 53 b7 3f dd f1 75 3f 1d 74 e2 be
       0.31215852 1.4322252 0.9607218 -0.44229212
000350 b4 34 60 3d 79 61 cb be a1 e8 e2 3e 74 23 6d 3c
       0.05473776 -0.39722803 0.44318107 0.014473785
000360 26 2a 08 00 7d 92 83 3f c6 9d 08 3e a8 54 f9 b2
       7.49804e-40 1.027908 0.13341436 -2.9025912e-08
000370 d5 ac 45 3f e1 a2 71 bf 22 8a 3e bf 9f 97 88 be
       0.77216846 -0.9438916 -0.74429524 -0.26678178
000380 c8 2f e1 bc d2 f5 7a 3f 23 b9 18 3f 17 5a d4 3e
       -0.027488604 0.9803134 0.59657496 0.41474983
000390 d8 26 15 3e 91 57 81 bd ea 7e c9 3e 58 52 95 b4
       0.14565599 -0.0631553 0.3935464 -2.7813326e-07
0003a0 52 e2 2e 3d 32 90 fe bb 3b 4a 01 bf 77 2c 42 3c
       0.042696305 -0.0077686543 -0.5050389 0.011851422
0003b0 39 db 49 be 3c d5 74 3f 10 c0 ff 3d e7 2e df be
       -0.19712533 0.9563787 0.12487805 -0.4359047
0003c0 13 69 d8 3d 85 81 43 3c 46 cc 86 be 76 ed 17 3f
       0.10566916 0.011932735 -0.26327723 0.5934671
0003d0 29 45 73 3f aa 24 52 bf 03 d5 9c 3f 89 28 3c b9
       0.95027405 -0.82087195 1.2252506 -0.00017944178
0003e0 e6 f3 00 80 19 29 30 3f ee b9 59 3f 3f 38 a6 b7
       -8.7494e-41 0.6881271 0.8504933 -1.9814934e-05
0003f0 60 4f 7f be d3 63 90 3f 8d 18 7c bf f2 33 17 3f
       -0.24932623 1.1280464 -0.9847496 0.5906364

layers.2.bias f4 [32]
000000 9c ec 35 3e 4c ec 00 80 86 27 95 bd a4 c9 ab 3e
       0.1776604 -8.4767e-41 -0.07282929 0.33552277
000010 02 24 8d bc 80 e2 a5 be e9 42 a9 3e fc b2 2d be
       -0.017229084 -0.32399368 0.3305886 -0.16962808
000020 b1 57 a4 bc ae 6d 01 00 7c e3 ba 3e bf ac 63 3e
       -0.020061346 1.31181e-40 0.36501682 0.22233866
000030 12 95 3d 3c 2c fb 02 80 b0 41 af ad bb 7a a6 3e
       0.011571186 -2.73774e-40 -1.9924368e-11 0.3251551
000040 7c a7 c3 b9 b2 5d 21 ba 92 fe f4 3b b2 b1 16 3e
       -0.00037318084 -0.0006155624 0.007476636 0.14716223
000050 fb fd 8b 3e a1 2c 05 80 ab 44 87 be e1 f6 0d b8
       0.2734221 -4.75187e-40 -0.26419577 -3.3846944e-05
000060 fa 89 c0 3e f0 d6 7e 3e 9c 57 a4 3e 78 fd d1 3e
       0.37605268 0.2488668 0.3209809 0.41013694
000070 aa 91 9c 3e f9 a5 a7 3e a3 75 58 3d 93 61 b9 bb
       0.30579883 0.32743815 0.052846562 -0.0056573837

layers.3.weight f4 [581, 32]
000000 c4 7e c7 bb 5a 21 06 80 67 99 1d be 72 63 63 3e
       -0.0060881097 -5.62977e-40 -0.1539055 0.22205904
000010 eb 57 99 be da e4 3e bf aa 1c c5 bd cc 66 da be
       -0.2994989 -0.7456795 -0.09624608 -0.42656553
000020 1d 49 8d be 08 33 cb ac 60 29 2a 3e 4d 5e 1a 3e
       -0.27594844 -5.7752726e-12 0.16617346 0.15075035
000030 c9 eb f8 bd 1c c6 d3 2d 84 4b 40 3a ee 0b 2d be
       -0.121543474 2.4075901e-11 0.00073354715 -0.16899082
000040 aa 5a 67 bc fe 31 d5 3b 9b 8c cb be e4 9e 23 be
       -0.014120737 0.0065062037 -0.3975571 -0.1597858
000050 34 4b f9 3a 38 2c 5c 2d 52 01 fd 3c 21 0e 93 bc
       0.0019019605 1.2515371e-11 0.030884419 -0.017951073
000060 8b dd 0f 3d 87 3a 81 bf 9b 71 4a be e7 53 91 3c
       0.03512339 -1.0095986 -0.197699 0.017740203
000070 a5 2a 3f bf 75 3c 5c 3e ad 7f eb bd e9 5e 0a 3e
       -0.74674445 0.21507438 -0.114989616 0.13512768
000080 8d 81 18 3f 02 35 06 80 7d 30 23 bf 31 cf 84 3e
       0.5957268 -5.70029e-40 -0.6374586 0.25939324
000090 b4 77 8e 3e bc 42 66 bf 5f d1 22 3e 03 d2 ff bd
       0.278257 -0.8994558 0.15900181 -0.124912284
0000a0 8f 46 4d bf cf 45 00 00 b1 44 57 be 14 3b 4e 3e
       -0.8018579 2.5043e-41 -0.21022297 0.20139724
0000b0 27 3f 90 3d d4 4b 67 36 8d 1e d0 39 e3 7c fa 3e
       0.07043295 3.446582e-06 0.00039695614 0.48923406
0000c0 92 b4 38 bc 92 87 f0 3b 09 03 c5 be 08 8b 1d be
       -0.01127352 0.00734038 -0.38478878 -0.15385067
0000d0 a2 61 d2 3e 95 40 a4 10 58 15 05 bf bb a1 28 bc
       0.41090113 6.47861e-29 -0.5198569 -0.010292466
0000e0 08 e3 93 3e 7c 75 1e 3e 6d 4c 94 3d 23 f8 91 3e
       0.2888415 0.15474504 0.072411396 0.28509626
0000f0 f8 f5 de be 5b 03 a3 3e 34 ed 9c 3e fb 29 25 c0
       -0.43547034 0.31838498 0.30649722 -2.5806873
000100 d8 b8 9b bd 0d 11 08 80 89 f5 57 be 2d 33 d8 3e
       -0.076036155 -7.408e-40 -0.21089758 0.42226544
000110 0d ea 68 be 4b d7 60 bf 32 c7 b7 bd c7 96 08 bf
       -0.22745533 -0.8782851 -0.0897354 -0.5335507
000120 4c a4 c3 be f5 e6 00 00 ae 45 85 3d 7f 06 12 3e
       -0.38211286 8.2852e-41 0.06507431 0.1426029
000130 e6 1d 61 be 6b cb 2b b1 c4 51 bf 3a 1d 70 72 3d
       -0.21984062 -2.4999405e-09 0.0014596512 0.05918895
000140 1f 0d 4a bb fa a3 cf 3b 3d 95 aa be b9 78 a5 be
       -0.0030830575 0.006336686 -0.33316985 -0.32318667
000150 b2 e3 11 3c 15 5d 01 00 4f 1a 5c be 90 2e f1 3b
       0.008904384 1.25227e-40 -0.21494411 0.007360287
000160 e0 91 16 bd e5 0a ec bd 33 b9 9a bd f3 43 39 bd
       -0.03676021 -0.115255155 -0.07554855 -0.045230817
000170 e4 b6 2b bf 8e 6e 54 3e 00 35 82 be 04 aa fb 3d
       -0.67075944 0.20745298 -0.2543106 0.12288287
000180 2a 1a 89 3e ec 7d 09 80 e9 96 00 be ae 9c 01 bc
       0.26777774 -8.71692e-40 -0.12557568 -0.0079108905
000190 4b 9e 6a be de 38 26 bf ab 2f 13 3f 6b 8e 8a 3e
       -0.22911946 -0.6493052 0.5749461 0.2706178
0001a0 40 52 e4 be db f0 01 00 f2 a7 9a 3e f0 3e 77 28
       -0.44594002 1.78238e-40 0.30206257 1.3724902e-14
0001b0 e7 40 1e be f9 c2 1e 94 a8 b9 9c 3a da d4 d6 bf
       -0.15454446 -8.015413e-27 0.0011957185 -1.6783707
0001c0 47 28 81 3b c2 e9 e2 3a 5c dc ad 3e 33 2a ad bf
       0.003941569 0.0017312097 0.33957183 -1.3528503
0001d0 bb 9e 68 c0 42 ea 04 80 48 fb 50 3e e1 43 21 bc
       -3.6346881 -4.51378e-40 0.20408356 -0.009842844
0001e0 1a a1 1a bf 85 cd c3 be 7d b6 67 bf 2f 24 2a 3e
       -0.6040207 -0.38242736 -0.9051283 0.16615365
0001f0 9f 58 1e be ee cb 44 bf fe 84 12 3e 0d 04 c5 3e
       -0.15463494 -0.7687367 0.14308545 0.38479653
000200 7e bd ba be 22 e5 05 00 92 f0 7e 3e 02 43 0c bc
       -0.36472696 5.41375e-40 0.24896458 -0.008560898
000210 d0 2b 50 bc df 6b cd 3e 80 be de be f2 18 c2 be
       -0.012705758 0.40121362 -0.43504715 -0.37909657
000220 9f c3 0e bf 30 f1 b4 8d 92 67 bc b9 97 24 50 bf
       -0.55767244 -1.115142e-30 -0.0003593532 -0.8130583
000230 46 fd 56 bf dd 4c 13 9c 61 48 ef 81 cd 24 89 be
       -0.83980215 -4.8737563e-22 -8.7898593e-38 -0.2678589
000240 37 63 d8 25 c5 d0 da bb bf ea b4 be 57 84 90 bf
       3.7537258e-16 -0.0066777193 -0.35335347 -1.1290387
000250 75 60 b3 be fb c5 07 00 3c 54 c6 3d 96 a1 02 bc
       -0.35034528 7.1387e-40 0.09684035 -0.007973095
000260 80 3f 31 bc d0 1d c3 3d 54 6e 99 be 5e 22 93 b9
       -0.010818362 0.09527171 -0.29966986 -0.0002806363
000270 0f 24 44 bd 73 88 31 be 08 73 0d bf f3 24 2c 19
       -0.04788595 -0.17337207 -0.5525365 8.8996534e-24
000280 21 4c f6 be 6d b9 06 00 77 40 67 3d 7e da b4 bc
       -0.48104957 6.17531e-40 0.056457963 -0.022076841
000290 e5 4c ee bf 32 f2 51 3d d7 31 da 3e 36 3a cc bf
       -1.8617216 0.051256366 0.4261615 -1.5955265
0002a0 48 67 48 3e 42 55 07 80 b9 44 0b be 39 a8 13 3f
       0.19570649 -6.73433e-40 -0.13600434 0.5767856
0002b0 ab c7 c6 3d 20 db 39 23 14 9c d8 36 fa be 41 bf
       0.097060524 1.0075272e-17 6.4554715e-06 -0.7568203
0002c0 79 20 2d 3c 14 1e 02 bc 67 13 9e bf 0a 00 66 3e
       0.010566824 -0.0079417415 -1.2349671 0.22460952
0002d0 a4 ea 94 be 8b 19 08 80 12 26 49 3e be 70 02 bb
       -0.29085267 -7.43847e-40 0.19643429 -0.0019903625
0002e0 73 a7 bd bf 9d 0d 28 be 69 08 8b be 3d a5 25 28
       -1.4816726 -0.16411443 -0.27154854 9.19517e-15
0002f0 11 ee ad be f2 ca 9f bf 02 a4 68 bf a5 4b 05 80
       -0.33970693 -1.2483809 -0.90875256 -4.86314e-40
000300 40 6c 14 3f 6c eb 00 00 a8 74 42 bf e7 87 3e 3f
       0.57977676 8.4453e-41 -0.75959253 0.7442612
000310 b4 6c 6d 3e 0f 2a e1 be c2 2a 73 3d d6 0b 15 be
       0.23185998 -0.439774 0.05936695 -0.14555296
000320 bf bf 11 bf b7 2f 60 9f 80 32 bf bf f7 fb 30 3e
       -0.56933206 -4.7473314e-20 -1.4937286 0.17283617
000330 f9 59 b3 3b 8b e9 68 37 ad 98 7e b9 67 78 ab 3e
       0.005473372 1.3882654e-05 -0.00024280204 0.33490297
000340 5c 0a 2a bb 98 62 fa 3a 08 9f 97 be 5d 0a cb bb
       -0.0025946116 0.001910287 -0.2961352 -0.0061963038
000350 33 50 fa 3e 7e 3f 01 80 ae c5 31 bf 38 0d f6 bb
       0.48889312 -1.14612e-40 -0.6944226 -0.0075089
000360 4b 4b d5 3e 46 dc 86 bc c7 90 28 3e aa d8 6d 3e
       0.41659006 -0.016462456 0.16461478 0.23227182
000370 9b ab a4 be 4a 84 7c 3e df 7c 87 bb c3 93 29 c0
       -0.32162175 0.2465984 -0.004134759 -2.6496437
000380 3d 3b 04 3e 42 71 01 80 d8 a8 52 be 8c 1a 9e c0
       0.12913223 -1.32465e-40 -0.20572221 -4.9407406
000390 a8 b5 e7 3d 5d 47 9b bf 5c 08 52 3e 1d bd f9 be
       0.11313945 -1.2131153 0.20511001 -0.48777094
0003a0 ce de 9d 3d 52 b8 56 28 6c 21 c1 3d 8c ed d1 bf
       0.07708512 1.19193545e-14 0.09430203 -1.6400619
0003b0 c9 f5 1d bf 09 54 28 a8 dd 20 6e 39 98 08 83 3f
       -0.61703163 -9.344096e-15 0.00022709691 1.0236998
0003c0 db f1 83 3b a3 0a ac 3b af 65 c0 be 5c bf c6 3e
       0.004026634 0.0052502914 -0.37577578 0.3881787
0003d0 ac 57 0d 3f 5b 5a 75 14 73 98 f0 bd 69 05 fe 3b
       0.552119 1.23871585e-26 -0.117478274 0.00775211
0003e0 e0 8b 23 bf 65 4a 3c bf 85 b7 cc 3e 2e 60 59 3e
       -0.6388531 -0.7355102 0.39983764 0.21228096
0003f0 94 75 7f 3e 96 6b 7e 3f 4e 85 4b bd 9c b5 f7 be
       0.24947196 0.99382913 -0.049687676 -0.48380744

layers.3.bias f4 [581]
000000 5c ab da be ae e8 13 be 2d 7b 96 bd 45 da 5a 3e
       -0.42708862 -0.14444229 -0.07347713 0.21372326
000010 67 4f 79 bc 8d c3 e9 bd 8e 34 bf 3c 28 d9 40 be
       -0.015216685 -0.114142515 0.02334049 -0.18832839
000020 9a 76 84 bd 8c c6 39 bd 28 81 81 bd f4 89 a0 bd
       -0.06467934 -0.045355365 -0.06323463 -0.078388125
000030 f3 d2 8e bd 4d b2 35 3d c4 34 fd bc 2d 68 86 be
       -0.06973829 0.044359494 -0.03090895 -0.26251355
000040 7c e1 8e be 2d c7 9e be be e7 c8 bd 96 57 2c 3d
       -0.27906406 -0.31011334 -0.09809826 0.042075716
000050 57 14 38 3e 7d 4b a2 3b 54 09 81 bd e2 15 88 bd
       0.17976509 0.0049528466 -0.06300607 -0.06644799
000060 9a e8 07 be 81 c9 8a bd 18 00 f4 bc 29 f9 ab bd
       -0.13272324 -0.06776715 -0.029785201 -0.08397133
000070 32 43 2f be 08 d9 b4 be 50 4c 2c 3d 47 e0 1c bd
       -0.17115477 -0.35321832 0.042064965 -0.038299825
000080 66 89 8f bc 25 bd 12 3d 3b 68 56 3d 54 d5 8a bd
       -0.017521571 0.035824914 0.052345496 -0.0677897
000090 51 c4 11 bd 81 c2 c8 3d bd 3c 89 bd 38 ae 40 bc
       -0.035587613 0.09802724 -0.06701038 -0.011760287
0000a0 dc 53 31 bd 9d 6b cf bc 9e 53 b5 bb b3 88 20 3e
       -0.043292865 -0.025319869 -0.0055336496 0.15677147
0000b0 6c 42 8b bc f2 6b 22 3e 82 5d 0d bd 67 d1 a0 bc
       -0.016999446 0.1586149 -0.034513004 -0.0196311
0000c0 0b fa 60 bc e9 49 0e bb 5f 44 06 bd b9 f1 a5 3d
       -0.01373149 -0.0021711534 -0.032780048 0.081027456
0000d0 24 50 32 bd a3 5c c9 bb e3 d2 4b bd 9c e5 9a bd
       -0.04353346 -0.0061450764 -0.049761664 -0.07563326
0000e0 db fa 2a be 64 cd 8d bc 04 95 a9 be d2 fe a0 bd
       -0.16697256 -0.017309852 -0.33121502 -0.07861103
0000f0 fa 36 15 be 51 5b 6f 3d 1f 4f 5b 3e e1 d0 2b 3c
       -0.14571753 0.058436695 0.21416901 0.010486812
000100 55 f3 d9 bd 4b 8b f4 3a a4 82 b9 bb 76 6e 58 3c
       -0.10642115 0.0018657235 -0.0056613255 0.01320993
000110 25 31 c0 bb e3 9c b3 bb 6f 33 9b bb 2c 1a f6 bc
       -0.0058652335 -0.005481349 -0.004736356 -0.030041777
000120 1f 34 5f bd b4 4f 2e bd d6 3f e3 bc 83 1b 7b 3c
       -0.054493066 -0.04255648 -0.0277404 0.0153263835
000130 4f b2 fe 3c fa 0f 80 3d 6f 93 3f 3d d0 f9 96 bd
       0.031090884 0.06253047 0.046771463 -0.07371867
000140 5d 63 d2 bc 9b 0d 9f bc 29 8a 43 bb a3 63 30 be
       -0.025682146 -0.019415667 -0.0029836989 -0.17225508
000150 16 fd 80 bb 18 70 9d 3e df 87 f4 3d f7 cb 39 bc
       -0.00393642 0.30749583 0.11939978 -0.011340133
000160 12 f9 7b bd 89 21 1d bd 0e ea ab 3d 14 89 2f 3a
       -0.06151683 -0.03836206 0.08394252 0.00066961464
000170 20 93 fc bd 2e 7d b4 bd aa 37 b3 bd 87 72 7d bd
       -0.12332749 -0.08812939 -0.087508515 -0.0618768
000180 a0 f4 de 3d 9d e1 df 3c 5d 43 6a bd 8d b5 bb bc
       0.10886502 0.02732926 -0.05719315 -0.022913719
000190 21 aa 76 bd 4c 2e 08 3d ed e4 c1 bd 45 c4 14 bd
       -0.06022084 0.033247277 -0.09467492 -0.03631999
0001a0 b4 8e 07 3e 35 4d 32 3d aa 43 16 bd cf 51 dd 3c
       0.1323803 0.04353066 -0.036685623 0.027016548
0001b0 00 a3 f8 bd 85 0b 1f bd 2f 9c 11 3d 75 f0 13 bd
       -0.12140465 -0.038829345 0.03554934 -0.03611799
0001c0 f0 0e d2 3d 75 1a 29 3c 68 54 03 bd ef 4f 87 bd
       0.10256755 0.010321249 -0.032062918 -0.06607043
0001d0 7e 8e 9e 3c a5 0c 4a 3d 11 66 04 bd 79 ba 14 3c
       0.019355055 0.049328465 -0.0323239 0.009077662
0001e0 01 9c 80 bd d4 85 94 bd 5a bd 08 bd b6 81 e3 3c
       -0.062797554 -0.07252088 -0.033383705 0.027771812
0001f0 61 91 94 bb de 4e e9 3c 1c 4b 5f bd 66 f8 36 bc
       -0.004533932 0.02847999 -0.05451499 -0.011167621
000200 f4 2e e2 3c dc b2 cf 3c 9f e7 1a 3e d7 c9 72 3d
       0.02761028 0.025353841 0.15127419 0.05927452
000210 01 38 39 3d 93 14 a9 bd 94 8a f4 bc 5e 45 d6 bc
       0.045219425 -0.08255877 -0.029851235 -0.026156124
000220 2e 80 c7 3d 23 97 5c 3e a8 c4 0e bb 2c 59 32 3d
       0.09741245 0.21542029 -0.0021784697 0.043542072
000230 0c ed a5 bc ed 04 3f bd f6 d0 f9 3a 80 08 6d 3d
       -0.020254634 -0.046635557 0.0019059468 0.057869434
000240 d2 b9 f4 bd 55 69 41 bd 32 45 30 3c af 3c 51 bd
       -0.11949505 -0.047219593 0.010758685 -0.051083263
000250 c2 fc a2 bd 0c 2a 96 bd 0a 31 90 bc 73 db 7e bd
       -0.07958366 -0.073322386 -0.017601509 -0.062221
000260 c5 af 93 bc 12 ff ee ba 40 b4 94 bc f4 84 d9 bc
       -0.01802815 -0.0018233976 -0.018152356 -0.026552655
000270 95 18 37 be ba 62 28 bd a9 0c a3 3a fd ed 34 3c
       -0.17880471 -0.041109778 0.0012439686 0.011043069
000280 df db 2f bd 0c a4 cd bc ed d0 52 bc 00 51 64 3d
       -0.042934295 -0.025102638 -0.012867195 0.05574131
000290 29 af 66 bd 7f 9f 71 3c cd d1 cb bc 8a 21 c7 bd
       -0.05631939 0.0147474995 -0.024880314 -0.09723194
0002a0 eb d2 3d 3c 4c 0d 3d bc aa b3 b0 3c 3e 66 3f bd
       0.011585931 -0.011538815 0.021570046 -0.046728365
0002b0 82 34 f3 bc ac 4c e1 bc fe 81 54 bc 70 1f 56 bd
       -0.029688124 -0.02750238 -0.012970446 -0.052276075
0002c0 af 66 b1 3c 80 56 2e 3d c3 5f 66 3d b9 03 8a 3d
       0.021655409 0.04256296 0.05624367 0.06738991
0002d0 24 6a be bb ed 15 ec 3b 39 3f 03 bb b9 1b 49 3d
       -0.005810993 0.007204762 -0.0020026697 0.049098704
0002e0 e1 e8 33 bc 3d b1 df 3d bb 60 83 3c ae 20 27 bd
       -0.010980816 0.109224774 0.016037336 -0.04080265
0002f0 31 77 84 3d 21 c0 15 bc f5 dd 2f bd 36 00 97 3c
       0.064680465 -0.009140045 -0.042936284 0.018432718
000300 68 cb ac bc 85 af d0 bb ea d4 67 bc 47 db d0 bd
       -0.021093085 -0.00636858 -0.014149884 -0.10198074
000310 02 c0 02 bb bd 0c 49 3c e7 03 cb bc 97 0f 0d bd
       -0.0019950871 0.012271103 -0.024782134 -0.034438696
000320 d1 1f 04 bd f1 c7 22 3c 3f 6e cb 3b 2d 60 19 bd
       -0.032256905 0.009935365 0.0062082107 -0.037445236
000330 c3 42 58 3d 36 67 d5 bc f7 5b aa b5 aa 3f f4 bc
       0.052798044 -0.026050191 -1.2692752e-06 -0.029815514
000340 40 4a c9 bc 60 7d 81 bc 6a 58 b0 bd bc 82 32 bc
       -0.024571538 -0.015806854 -0.08610614 -0.010895427
000350 18 64 56 bb 22 b8 e5 bc 57 ea 7d bc e5 7f d7 bc
       -0.003271347 -0.028041903 -0.0154977655 -0.026306102
000360 2d b8 dc 3c 97 82 cb bc 20 2e 1f bd 1c c9 44 bc
       0.02694329 -0.024842544 -0.038862348 -0.012010839
000370 04 47 8f bb 3b 35 8d bd 27 8a 31 3c 8b f7 f7 bc
       -0.0043724794 -0.068949185 0.010836161 -0.030269405
000380 40 8a ef bc 88 6f ce bb eb 33 c9 3b 3c 2f 0d bd
       -0.029240727 -0.0062999167 0.0061402223 -0.034468874
000390 3f 4f 6b 3c 41 ea 11 bb c5 17 e5 bb 4d 58 db 3c
       0.014362155 -0.002226487 -0.006991359 0.026775504
0003a0 0d f7 98 3c 03 c0 87 3c 55 1f ae bc 96 2e 59 bb
       0.01867249 0.01657105 -0.021255175 -0.003313934
0003b0 ee 57 c1 bc a3 e4 fa bb 83 2e 08 bd c7 37 43 3e
       -0.023601498 -0.00765665 -0.033247482 0.19064246
0003c0 9b 83 52 bb d6 3c 2f 3c a4 4a d6 3b f1 53 18 3d
       -0.00321219 0.010695657 0.0065396596 0.037189428
0003d0 db 33 85 3c 5d 57 f9 3c be 6b cd bb df ab b6 bc
       0.016260078 0.030437166 -0.0062689474 -0.022298751
0003e0 fa 88 83 3c 11 18 45 bd a2 2e 0d 3d 0a ce cd bc
       0.016056526 -0.048118655 0.0344683 -0.025122661
0003f0 4a 96 97 bc e3 f1 35 bc 32 9a 01 bb c2 49 73 bc
       -0.01850428 -0.011105034 -0.0019775745 -0.014849128
